exercise_08/lightning_logs/ml_logs/version_1/checkpoints/epoch=14-step=13740.ckpt (torch, 392574 bytes, 12 tensors)

encoder.encoder.0.weight f4 [20, 784]
0	0x3c9c8c68	0.01910992
1	0xbccb7ec3	-0.024840718
2	0x3aea74b0	0.0017887559
3	0x3b68ba21	0.0035511332
4	0xbc56c344	-0.013108078
5	0x3d2bffcf	0.041992005
6	0xbccc6ee5	-0.024955222
7	0xbcc3f42c	-0.023920141
8	0xbc9caf47	-0.019126548
9	0x3cdcbf0c	0.026946567
10	0xbcc2375c	-0.023708038
11	0x3ce86f93	0.028373515
12	0x3d29694d	0.04136019
13	0x3d24b68f	0.040213164
14	0x3d23bf98	0.03997764
15	0x3c4cb6bc	0.012494739
16	0xbcc8fe2e	-0.024535265
17	0x3c7cf697	0.015439651
18	0x3caf4a9c	0.021397881
19	0x3b82e70d	0.0039948286
20	0xbcc990f7	-0.024605257
21	0x3d09c75c	0.03363739
22	0x3c5e6aea	0.013575295
23	0x3cfbea58	0.030751392
24	0x3b330bb5	0.002732021
25	0xbcceacef	-0.025228946
26	0x3d17fe9c	0.03710805
27	0xbce7839f	-0.028261004
28	0xbc9a2f50	-0.018821388
29	0x3d21127a	0.03932426
30	0xbb6af964	-0.0035854215
31	0x3cd5b383	0.026086574
32	0x3cea0c71	0.028570386
33	0x3b23cc8e	0.002499375
34	0xb9ffd898	-0.00048798765
35	0x3cb8d4a3	0.02256233
36	0xba113c05	-0.00055402546
37	0x3cafc00a	0.021453876
38	0xbb977965	-0.0046226257
39	0xbc535a60	-0.012899965
40	0xbc81f7cc	-0.01586523
41	0xbcebfd60	-0.028807342
42	0xbb88fbb6	-0.004180397
43	0xbc1da4bf	-0.009621798
44	0x3c937d89	0.018004196
45	0x3be58ee4	0.0070055593
46	0xbc8ab379	-0.016931282
47	0xbc9d3567	-0.019190503
48	0x3aae53f8	0.0013300171
49	0x3ca04caa	0.019567806
50	0x3c10180a	0.008794794
51	0x3c31c6d3	0.010850626
52	0xbc4c9185	-0.012485866
53	0xbc196005	-0.009361272
54	0x3ae8b68c	0.0017754599
55	0x3cb0c053	0.021576082
56	0xbcd599ac	-0.026074253
57	0x3cb33305	0.021874914
58	0x3cdb2c28	0.026754454
59	0xbcea4104	-0.028595455
60	0x3cb1a033	0.021682834
61	0x3c45ed53	0.012080508
62	0x3cab5053	0.020912325
63	0xbc572b4a	-0.0131328795
64	0x3cef32d8	0.029199049
65	0xbc643c8a	-0.013930449
66	0xbc111900	-0.008856058
67	0x3c94b9dd	0.018155033
68	0xba88ceff	-0.0010437666
69	0x3d015cbf	0.03158259
70	0x3b279bb4	0.0025574984
71	0xbcad31bd	-0.021141881
72	0xbcbcd441	-0.02305043
73	0x3c0c095e	0.008547155
74	0xbcad0e31	-0.021124931
75	0x3d1e4c7a	0.038647152
76	0x3d1abc13	0.037777018
77	0x3ce6f924	0.028194971
78	0xbca86835	-0.020557502
79	0xbac6c932	-0.0015166162
80	0x3d075916	0.033043943
81	0x3c64d4ce	0.013966752
82	0x3c1bb365	0.00950322
83	0x3b8086cc	0.003922319
84	0xbc537fca	-0.012908885
85	0xbb98fa01	-0.0046684747
86	0x3ce1600f	0.027511625
87	0xb989f92b	-0.0002631632
88	0xbb3c6fac	-0.0028753085
89	0x3cc70503	0.024294382
90	0xbc2bfc84	-0.010497216
91	0x3ab6d28c	0.0013948246
92	0x3d14f025	0.036361832
93	0x3c4144a1	0.011796148
94	0x3cbb9ee0	0.022902906
95	0xbc3414b2	-0.010991262
96	0x3cc3cf1a	0.023902465
97	0xbc4f0d8c	-0.012637507
98	0x3d2ae510	0.041722357
99	0xbb491222	-0.0030680974
100	0xbc9df476	-0.019281607
101	0xba70e920	-0.0009190012
102	0x3d077248	0.03306797
103	0x3d0e528f	0.034746703
104	0x3c17490d	0.009233725
105	0x3d011194	0.031510904
106	0xbbab2293	-0.0052226274
107	0x3b4f7f32	0.0031661508
108	0x3d070250	0.03296119
109	0x3bce9fcd	0.006305671
110	0x3c6927d3	0.014230686
111	0x3ce4d8a6	0.027935337
112	0x3c1aecc5	0.009455864
113	0xbc674152	-0.014114695
114	0x3c2d0f93	0.010562795
115	0x3b94d084	0.0045414586
116	0x3b4e9b8e	0.0031525823
117	0x3d28f52e	0.041249447
118	0x3d183053	0.03715546
119	0xbcd22f60	-0.025657356
120	0xbbce56ef	-0.0062969844
121	0x3b3273d3	0.002722968
122	0x3cdf15ad	0.027232016
123	0xba9586bd	-0.0011407953
124	0x3aac543a	0.001314766
125	0xbb1845fb	-0.002323507
126	0xbc7a1e95	-0.01526608
127	0xbcc1a9dd	-0.023640567
128	0xbcaf705f	-0.021415887
129	0x3c60502d	0.01369099
130	0x3cbfd24f	0.023415713
131	0x3b8f790d	0.004378444
132	0x3d21f54d	0.039540578
133	0x3a067cee	0.00051303103
134	0x3d087ae2	0.033320315
135	0x3a390ff7	0.0007059569
136	0xbc57ae8a	-0.013164172
137	0x3c271dd2	0.010199981
138	0xbcecd4e2	-0.028910104
139	0x3ca47b95	0.02007846
140	0x3c699d45	0.014258687
141	0x3cbf2afa	0.023335923
142	0x3ccf717c	0.025322668
143	0x3d1908d4	0.037361935
144	0xbc891af7	-0.01673649
145	0xbcdcd40c	-0.02695658
146	0x3c1f5d3e	0.0097268205
147	0xbc14b766	-0.009076929
148	0x3be1de0b	0.0068929247
149	0x3d19c718	0.037543386
150	0x3c2aa279	0.010414713
151	0x3c34dc8b	0.01103891
152	0xbcb9441a	-0.022615481
153	0x3bf6804b	0.007522618
154	0xbcae83a3	-0.021303004
155	0xbae0d343	-0.0017152805
156	0x3d021cc9	0.031765733
157	0x3b8ad3db	0.004236681
158	0x3cb20b25	0.02173383
159	0x3c99a9cc	0.018757723
160	0x3cfb3d7e	0.03066897
161	0x3c95b537	0.018274887
162	0xbccc09aa	-0.024906952
163	0x3b81b513	0.0039583533
164	0x3c235aa9	0.009970346
165	0xbc087edc	-0.008331027
166	0xbca5c3dc	-0.020234995
167	0xbc85eaee	-0.016347375
168	0x3cbded38	0.023184404
169	0xbbb7e875	-0.005612428
170	0x3b62bea0	0.0034598485
171	0x3c8f8723	0.017520493
172	0x3cf7f803	0.030269628
173	0x3ccdca3e	0.02512085
174	0x3cb997b9	0.022655355
175	0x3d200fd8	0.03907761
176	0x3c58bf3a	0.013229186
177	0xbc1491d3	-0.00906797
178	0x3cbb06f7	0.02283047
179	0x3b6a1156	0.00357159
180	0x3d303b15	0.043025095
181	0xbc963dba	-0.01833998
182	0xbc3795dc	-0.011205163
183	0x3d042595	0.032262404
184	0xbc591832	-0.0132503975
185	0x3ce45c2c	0.027875982
186	0xbc89538a	-0.016763467
187	0x3c8fcac1	0.017552735
188	0x3d18948b	0.037251037
189	0x3cac76e8	0.021052793
190	0xbc6d73a9	-0.014492908
191	0x3cac07a8	0.020999745
192	0x3bd1b489	0.0063996953
193	0xba325f72	-0.00068043836
194	0xbce92fe4	-0.028465219
195	0xbc8a045c	-0.016847782
196	0xbbb25b52	-0.005443015
197	0x3d087bd0	0.0333212
198	0xbc923235	-0.017846206
199	0xbcdaee5e	-0.02672499
200	0xbc9fa88e	-0.019489553
201	0x3c940d74	0.018072821
202	0xbcce858d	-0.025210166
203	0xbcedb656	-0.029017609
204	0x3bef740e	0.007307536
205	0xbcdf4fe6	-0.027259778
206	0x3c5a9a05	0.013342385
207	0x3b1171bc	0.0022193035
208	0x3cf8bc60	0.030363262
209	0xbc987745	-0.01861156
210	0xbd1a3522	-0.037648328
211	0xbcdbe5c4	-0.02684296
212	0xbc1676a3	-0.009183559
213	0xbcb07828	-0.02154167
214	0x3d1fbb3a	0.038996913
215	0xbcafd3d5	-0.021463314
216	0xbce4e50a	-0.027941246
217	0x3cb4fff8	0.022094712
218	0xbb01582f	-0.00197364
219	0x3cec1548	0.028818741
220	0x3c4f6c5b	0.012660111
221	0x3c9b7934	0.018978693
222	0x3d046892	0.03232629
223	0x3b16af8f	0.0022992825
224	0xbc095a3c	-0.00838333
225	0xbbc9f9f5	-0.0061638304
226	0xbb335ff4	-0.0027370425
227	0xbccfbed1	-0.025359543
228	0x3d12e1ae	0.035859756
229	0x3cb46667	0.022021485
230	0xbbc37ed7	-0.005966048
231	0x3d0c36b8	0.03423187
232	0x3ca43959	0.020046877
233	0x3ca676e3	0.020320361
234	0x3cd3f038	0.025871381
235	0xbb03236d	-0.002001013
236	0xbc1f364a	-0.009717533
237	0x3ca59d57	0.020216627
238	0x3ba0b1b0	0.0049039945
239	0x3c8279fc	0.015927307
240	0x3c453776	0.012037149
241	0xbcfefcec	-0.031126462
242	0xbc82c0a8	-0.015961006
243	0x3d07fc66	0.03319969
244	0xb9a5d8c2	-0.0003163275
245	0xbc1734e2	-0.009228917
246	0xbc12dae3	-0.0089633195
247	0xbcb2a385	-0.021806488
248	0x3ce0dd92	0.027449403
249	0x3cdf7ab8	0.027280197
250	0xbc53662e	-0.0129027795
251	0xbce503c3	-0.027955895
252	0x3c76c925	0.015062605
253	0x3c108eef	0.0088231405
254	0x3d02081c	0.031746015
255	0x3c64b6bb	0.013959582

encoder.encoder.0.bias f4 [20]
0	0x3cb52c8c	0.022115968
1	0x3cd4fca8	0.025999382
2	0xbc9bddb8	-0.019026622
3	0x3cee9a3b	0.029126277
4	0xbc65a2e3	-0.014015886
5	0x3c9d23c9	0.019182103
6	0x3c2167b6	0.009851387
7	0xbc826031	-0.015915008
8	0xbc6d165b	-0.014470662
9	0xbd12a8ad	-0.035805393
10	0x3aafea27	0.0013421223
11	0xbc69fed8	-0.014281951
12	0x3c11cdfd	0.008899209
13	0x3c83e177	0.016098721
14	0x3cb1aee1	0.021689834
15	0xbc76e12f	-0.015068336
16	0x3c96d4f5	0.018412093
17	0xbc945830	-0.018108457
18	0xbc34631c	-0.011009958
19	0xbcc8768a	-0.024470586

decoder.decoder.0.weight f4 [784, 20]
0	0x3e437c00	0.19090271
1	0xbbed2e57	-0.00723819
2	0xbd1d828a	-0.03845457
3	0xbdb25863	-0.08708265
4	0x3e14dc59	0.14537181
5	0xbc060d00	-0.00818181
6	0x3e0d281a	0.13784829
7	0xbe2d3c40	-0.16917515
8	0xbe3e9cb4	-0.18614465
9	0xbd6a3bc5	-0.057185907
10	0x3e57f6b9	0.21090211
11	0xbe557ceb	-0.20848434
12	0x3da4e60e	0.08051692
13	0xbdb38364	-0.08765295
14	0x3d848094	0.06469837
15	0xbe35f24a	-0.17768207
16	0x3ddb6899	0.1071331
17	0x3cfafb58	0.030637428
18	0xbe31ce32	-0.17363814
19	0x3e3e8c72	0.18608263
20	0xbda1a462	-0.07892682
21	0xbd39b9ca	-0.045343198
22	0xbe392d08	-0.18083584
23	0x3d990e49	0.07473428
24	0x3da55abc	0.08073947
25	0xbe153485	-0.14570816
26	0x3e3123f0	0.17298865
27	0x3d31665b	0.043310504
28	0xbd8d6603	-0.06904223
29	0x3dd93d45	0.10607389
30	0xbd24a274	-0.04019399
31	0x3d21478f	0.039374884
32	0x3e06dcaf	0.13170122
33	0xbe632848	-0.22183335
34	0x3e24fd86	0.16112337
35	0x3e384ed5	0.17998822
36	0x3c2ca261	0.010536761
37	0xbe468a9e	-0.19388816
38	0x3d4e17e1	0.05031574
39	0x3ddf54dd	0.10904858
40	0xbe3fcfbd	-0.1873159
41	0x3e57f167	0.21088181
42	0x3ce77a18	0.028256461
43	0xbd8fc905	-0.07020763
44	0xbe12ff11	-0.14355113
45	0xbe55837b	-0.20850937
46	0xbe22800d	-0.1586916
47	0x3e094e7e	0.13408849
48	0xbdc4b374	-0.096045405
49	0xbe07e77a	-0.13271895
50	0xbd05378c	-0.032523677
51	0x3e1be26f	0.15223096
52	0xbe5a3722	-0.21310094
53	0xbd60e9d3	-0.054910492
54	0xbcdb355a	-0.026758838
55	0x3d12279b	0.035682302
56	0xbe193c8f	-0.14964508
57	0xbc96c9b1	-0.01840672
58	0x3e3bba01	0.18332674
59	0xbe25dd76	-0.16197762
60	0x3e5b56c8	0.21419823
61	0x3e047522	0.12935308
62	0xbe341200	-0.17584991
63	0xbc1e3cea	-0.009658078
64	0x3df18578	0.11793035
65	0xbc5a579a	-0.01332655
66	0xbdffb984	-0.12486556
67	0xbe01c545	-0.12672909
68	0xbd1405b9	-0.03613827
69	0xbe1d7dea	-0.15380064
70	0xbc86845a	-0.016420532
71	0x3d9f3fad	0.07775817
72	0x3daf7a82	0.085682884
73	0xbd5a7e06	-0.05334284
74	0x3d887e27	0.06664687
75	0xbdc1846f	-0.09449088
76	0xbdbff382	-0.09372617
77	0xbe14c67f	-0.14528845
78	0xbe0633ae	-0.13105652
79	0x3cd4d8c8	0.025982276
80	0x3ddca077	0.10772794
81	0x3e371f33	0.17882995
82	0x3ded22c5	0.115788974
83	0x3e0c45b8	0.1369847
84	0x3d55d8e2	0.05220879
85	0xbd81760b	-0.06321343
86	0x3e0103bc	0.12599081
87	0xbde45814	-0.11149612
88	0x3df22538	0.11823505
89	0xbdb1ca6c	-0.08681187
90	0xbbd7f01e	-0.0065899035
91	0x3daba898	0.08381766
92	0x3df83378	0.12119192
93	0xbb8e923b	-0.004350928
94	0x3e052925	0.13003977
95	0x3e57ff33	0.21093445
96	0x3e00a521	0.12562992
97	0x3dd62016	0.10455339
98	0xbdf12ecc	-0.11776504
99	0x3e27bf12	0.16381481
100	0xbe23b695	-0.15987618
101	0xbc0f837e	-0.0087593775
102	0x3d7c3228	0.06157127
103	0xbc4b6803	-0.012414935
104	0x3e4e4e37	0.20147024
105	0xbcacd88b	-0.02109935
106	0x3dd74f98	0.10513228
107	0x3e49a450	0.19691586
108	0x3d3fff4a	0.046874322
109	0xbde519f0	-0.11186588
110	0x3d072753	0.032996487
111	0xbe5c7b1e	-0.2153134
112	0x3d875f22	0.06609942
113	0x3da44740	0.08021402
114	0xbcd43178	-0.025902495
115	0x3d651444	0.05592753
116	0xbe3e7f30	-0.18603206
117	0x3dfeedcf	0.12447702
118	0x3d1e8b5f	0.038707133
119	0x3d19be94	0.037535265
120	0xbd979bef	-0.07402789
121	0x3d458304	0.04822065
122	0xbd838a1b	-0.06422826
123	0x3d147f91	0.03625447
124	0xbd7e5743	-0.062094938
125	0x3e2556af	0.16146348
126	0x3e1c0963	0.15237956
127	0xbd4ad442	-0.04951883
128	0xbd2075b2	-0.039174743
129	0x3e325533	0.17415313
130	0x3d62b394	0.05534704
131	0x3d7ed507	0.062214877
132	0x3e504167	0.20337449
133	0xbd3dc367	-0.04632893
134	0xbd8429a7	-0.06453257
135	0xbda13be9	-0.07872755
136	0x3e45cf08	0.19317257
137	0x3b968349	0.004593287
138	0x3e10797b	0.14108841
139	0xbd944d30	-0.07241285
140	0xbe38698f	-0.18009017
141	0x3d6e9a60	0.058252692
142	0xbdebd81d	-0.1151583
143	0x3dd2a067	0.102845006
144	0xbd9ede3c	-0.077572316
145	0x3e2e78f2	0.17038324
146	0x3ddf57de	0.10905431
147	0xbdd7d5ed	-0.1053885
148	0xbe4c11f1	-0.19928719
149	0xbe5c7dc3	-0.2153235
150	0xbe091aa1	-0.13389064
151	0xbda5a885	-0.08088783
152	0xbdfcde97	-0.12347143
153	0x3dc0951d	0.09403441
154	0x3dcddea0	0.10052228
155	0x3d4e3c47	0.050350454
156	0x3d86ff6b	0.06591686
157	0xbd974a47	-0.07387214
158	0xbe0d4526	-0.1379591
159	0x3de1fb5b	0.110342704
160	0xbe1525e7	-0.1456524
161	0xbdef67ed	-0.11689744
162	0x3cdd5af0	0.027020901
163	0x3cf46ea1	0.029837908
164	0xbe49bacf	-0.19700168
165	0xbcaaa877	-0.020832283
166	0x3d35defd	0.04440211
167	0x39cfc238	0.0003962682
168	0xbd859df5	-0.065242685
169	0xbdee5952	-0.1163813
170	0x3e07e1cc	0.13269728
171	0xbe2a83f7	-0.16651903
172	0xbdadc01a	-0.08483906
173	0xbe0b55fb	-0.13607018
174	0x3e170a65	0.14750059
175	0x3aa973b8	0.0012928164
176	0xbda0d206	-0.07852559
177	0x3df691e7	0.120395474
178	0x3e07c952	0.13260391
179	0x3df3f23f	0.11911439
180	0xbe39e61c	-0.18154186
181	0x3cc1d68a	0.02366187
182	0xbdd6bd5a	-0.10485335
183	0xbe579921	-0.21054508
184	0x3e5c05fc	0.21486658
185	0x3db58101	0.08862496
186	0x3da647aa	0.081191376
187	0xbe37e0a0	-0.17956781
188	0xbd1d7e6e	-0.03845065
189	0xbe0c11fe	-0.13678738
190	0xbe2f5fe4	-0.17126423
191	0xbe51bda3	-0.20482497
192	0xbd5bd8f7	-0.05367371
193	0xbcf29039	-0.029609786
194	0x3e05db6a	0.13071981
195	0x3ddf9836	0.10917704
196	0xbdc5129d	-0.09622691
197	0x3d6f93bd	0.058490504
198	0x3d443342	0.047900446
199	0xbe3b671e	-0.18301055
200	0x3dbd46e8	0.0924204
201	0x3e040d65	0.12895735
202	0xbde773b5	-0.11301366
203	0x3c99c946	0.018772732
204	0x3ddd6ead	0.10812125
205	0xbe5df6f2	-0.21676233
206	0xbe512cca	-0.20427242
207	0xbe6a1c61	-0.22862388
208	0x3d740ccc	0.059582517
209	0xbdaba7a0	-0.08381581
210	0x3dc18d21	0.09450746
211	0x3da5303b	0.0806584
212	0xbe1ed23f	-0.1550989
213	0xbd90ff05	-0.07079891
214	0x3c36ff60	0.011169285
215	0x3af67f9a	0.0018806339
216	0xbcf87d6e	-0.030333247
217	0x3d3dbee5	0.04632463
218	0x3c56616b	0.01308475
219	0x3dc9acd4	0.098474175
220	0x3cec1a79	0.028821217
221	0x3e0ccf70	0.13751006
222	0xbc7aeb14	-0.015314836
223	0x3e14cc0e	0.14530966
224	0x3da951f3	0.08267584
225	0xbe46088c	-0.19339198
226	0x3df05a84	0.117360145
227	0xbde92a27	-0.11384993
228	0x3e00336b	0.12519614
229	0x3e60d3c8	0.21955788
230	0xbe47ebfe	-0.19523618
231	0xbb9fca05	-0.0048763775
232	0xbd819521	-0.06327272
233	0x3e4b2c33	0.1984108
234	0x3cab9afb	0.020947924
235	0x3b9b20c0	0.0047341287
236	0x3e55e6f3	0.20888881
237	0x3c753eba	0.014968568
238	0xbbbd9b69	-0.0057863486
239	0xbe62b545	-0.22139461
240	0x3db04f55	0.086088814
241	0x3e250a07	0.16117106
242	0x3e140768	0.1445595
243	0x3e5c5845	0.21518047
244	0xbd6b86cf	-0.05750161
245	0xbd963d49	-0.07335908
246	0x3e1dfe15	0.15428956
247	0x3e47e2b1	0.1952007
248	0x3dffc14e	0.12488042
249	0xbdf881b1	-0.12134112
250	0x3e518b0b	0.20463197
251	0x3dbb2bce	0.091392145
252	0x3d706c50	0.058697045
253	0x3e253a64	0.16135556
254	0xbd0802ac	-0.033205673
255	0x3cf98378	0.030458197

decoder.decoder.0.bias f4 [784]
0	0xbdcd945c	-0.10038063
1	0xbc2b2a65	-0.010447119
2	0xbdbbc71f	-0.09168839
3	0xbc1c52f6	-0.009541264
4	0xbc219788	-0.009862788
5	0xbc2ecd34	-0.010669041
6	0xbc17a6f2	-0.009256111
7	0xbdd0be4e	-0.10192548
8	0xbd114644	-0.0354674
9	0xbe064787	-0.13113223
10	0xbe4e8512	-0.2016795
11	0xbc1fe619	-0.009759449
12	0xbc147ed2	-0.009063439
13	0xbc215377	-0.00984656
14	0xbe3a1d22	-0.18175176
15	0xbc1f0265	-0.009705161
16	0xbe57def7	-0.21081148
17	0xbe204d06	-0.15654382
18	0xbc1505f4	-0.009095658
19	0xbdd22fb8	-0.10263008
20	0xbdff7723	-0.124738954
21	0xbdcaa597	-0.09894865
22	0xbde9190f	-0.11381733
23	0xbc1af1e6	-0.009457087
24	0xbe0118a2	-0.12607053
25	0xbe618046	-0.22021589
26	0xbd97e327	-0.07416373
27	0xbc33138b	-0.010929952
28	0xbc2924da	-0.0103237275
29	0xbc14b7f2	-0.009077059
30	0xbe646cfc	-0.22307199
31	0xbd80fc73	-0.06298151
32	0xbe072c12	-0.13200405
33	0xbd813fcd	-0.06310997
34	0xbe069f9c	-0.13146824
35	0xbc9105b3	-0.017702913
36	0xbd2638c4	-0.04058148
37	0xbe518982	-0.20462611
38	0xbc189ce7	-0.009314752
39	0xbc285dfc	-0.010276314
40	0xbc29ddf5	-0.01036786
41	0xbc20fdd2	-0.0098261405
42	0xbcefdc88	-0.029279962
43	0xbc36cf1a	-0.011157775
44	0xbe5fa39f	-0.2183976
45	0xbc171057	-0.009220204
46	0xbc1876a5	-0.009305631
47	0xbdc5811d	-0.09643767
48	0xbc176853	-0.009241181
49	0xbda08072	-0.07836999
50	0xbc180047	-0.00927741
51	0xbdc2691a	-0.09492703
52	0xbe070cae	-0.1318843
53	0xbdeca815	-0.115554966
54	0xbc114ec1	-0.008868874
55	0xbda17766	-0.078841016
56	0xbe3aa563	-0.18227153
57	0xbc3c09f8	-0.011476986
58	0xbe0e23b5	-0.13880809
59	0xbe16244e	-0.14662287
60	0xbe06b596	-0.13155207
61	0xbe14acfc	-0.14519113
62	0xbe12c9a2	-0.1433473
63	0xbc26634f	-0.010155513
64	0xbdaf0fe3	-0.08547952
65	0xbc28c93a	-0.010301882
66	0xbc19c2fc	-0.009384867
67	0xbc2abdfa	-0.0104212705
68	0xbc0ab0da	-0.008465016
69	0xbc126a65	-0.008936499
70	0xbc2aa3b3	-0.0104150055
71	0xbc20e6a6	-0.009820616
72	0xbc0dbadd	-0.008650509
73	0xbe2ddfd4	-0.16979915
74	0xbe1009da	-0.14066258
75	0xbc143cac	-0.009047668
76	0xbc189bb1	-0.0093144635
77	0xbc23a454	-0.009987909
78	0xbc25573d	-0.0100916
79	0xbe01f45f	-0.12690876
80	0xbc246b83	-0.010035398
81	0xbceb97a7	-0.028758837
82	0xbc2ebbab	-0.010664861
83	0xbc13165f	-0.008977502
84	0xbc1a3f5b	-0.009414519
85	0xbc02e7be	-0.007989822
86	0xbd76447a	-0.060123898
87	0xbe15a3bf	-0.14613245
88	0xbc1d6d63	-0.009608599
89	0xbc1793d9	-0.009251558
90	0xbdf5d7a4	-0.12004021
91	0xbe254a72	-0.1614168
92	0xbc14c420	-0.009079963
93	0xbe470e1c	-0.19438976
94	0xbc1103fc	-0.008851048
95	0xbc2794eb	-0.010228376
96	0xbc157779	-0.009122723
97	0xbc31a532	-0.010842608
98	0xbc1d9a05	-0.009619241
99	0xbe568f45	-0.2095309
100	0xbd2cdc93	-0.042202543
101	0xbc114c3f	-0.008868276
102	0xbdc5c290	-0.096562505
103	0xbc16fca9	-0.009215512
104	0xbd07b276	-0.033129178
105	0xbdf96752	-0.1217791
106	0xbde21f66	-0.11041145
107	0xbe38c898	-0.1804527
108	0xbc240026	-0.010009801
109	0xbe06a0fc	-0.13147348
110	0xbc2236f2	-0.009900795
111	0xbd90b860	-0.07066417
112	0xbc16bdaf	-0.0092004975
113	0xbc123aea	-0.008925179
114	0xbe2eff2e	-0.17089531
115	0xbe0f7598	-0.14009702
116	0xbc1a7ed5	-0.009429653
117	0xbd8a72d7	-0.06760185
118	0xbe3e9e6c	-0.1861512
119	0xbe0ba2b6	-0.13636288
120	0xbe5b1b55	-0.21397145
121	0xbe1036d1	-0.14083411
122	0xbbd58e87	-0.0065172347
123	0xbc0ef09c	-0.008724358
124	0xbc2b1893	-0.010442871
125	0xbc37d865	-0.011221026
126	0xbc464faa	-0.012103954
127	0xbe09e11f	-0.13464783
128	0xbc178f7b	-0.009250517
129	0xbc162f49	-0.009166547
130	0xbc241c55	-0.0100165205
131	0xbc0b73ae	-0.008511467
132	0xbc09b6af	-0.008405372
133	0xbc3b0f51	-0.011417226
134	0xbdfaedc6	-0.12252383
135	0xbc1d0b34	-0.009585191
136	0xbc33df1e	-0.010978488
137	0xbd3812e5	-0.044939894
138	0xbd15b860	-0.036552787
139	0xbc3b0201	-0.011414052
140	0xbde69b64	-0.11260107
141	0xbc16bd7a	-0.009200448
142	0xbe347f03	-0.17626576
143	0xbc275726	-0.010213649
144	0xbe67a2c7	-0.22620688
145	0xbc241b7d	-0.010016319
146	0xbde3eca9	-0.11129124
147	0xbcbed2a9	-0.02329381
148	0xbc18e2d2	-0.009331422
149	0xbc2bdcf2	-0.010489689
150	0xbc38e94d	-0.011286092
151	0xbc173fdf	-0.009231537
152	0xbc2b407b	-0.010452385
153	0xbc0ac2e0	-0.008469313
154	0xbc292687	-0.010324127
155	0xbc0e7b0d	-0.00869633
156	0xbc172ffc	-0.009227749
157	0xbd2a4bd9	-0.04157624
158	0xbc047ef4	-0.008086909
159	0xbc25edcc	-0.010127496
160	0xbc0a7527	-0.008450783
161	0xbe5f0090	-0.21777558
162	0xbe571afd	-0.21006389
163	0xbc226dcf	-0.009913876
164	0xbc25759c	-0.010098841
165	0xbdbb5499	-0.09146995
166	0xbd823097	-0.06356924
167	0xbc2512f2	-0.010075318
168	0xbc148169	-0.009064057
169	0xbc2bba7b	-0.010481472
170	0xbc140853	-0.009035188
171	0xbc11a33e	-0.008889018
172	0xbc265dfd	-0.0101542445
173	0xbc28079b	-0.01025572
174	0xbd758d60	-0.05994928
175	0xbe2ab58b	-0.16670816
176	0xbc1580d8	-0.009124957
177	0xbc12652e	-0.008935256
178	0xbdc8ec49	-0.09810693
179	0xbd8674d9	-0.06565256
180	0xbe0c3979	-0.13693799
181	0xbcb1ad7d	-0.021689171
182	0xbb86d15a	-0.004114312
183	0xbbaa7c6d	-0.005202821
184	0xbe141bdf	-0.14463757
185	0xbc0a9783	-0.008458975
186	0xbdc13eee	-0.09435831
187	0xbe5e2064	-0.21692044
188	0xbc114e93	-0.008868831
189	0xbc10a47d	-0.00882828
190	0xbc0b0686	-0.008485442
191	0xbc10d50b	-0.008839856
192	0xbdb46ae9	-0.08809454
193	0xbc2971d2	-0.010342078
194	0xbc1f470c	-0.009721529
195	0xbe1e95a3	-0.1548677
196	0xbc1399e7	-0.009008861
197	0xbe4c1fda	-0.19934025
198	0xbc1a4068	-0.00941477
199	0xbda4cfba	-0.08047433
200	0xbc1bf1df	-0.009518116
201	0xbc16c424	-0.009202037
202	0xbc2d704b	-0.010585855
203	0xbde47c63	-0.111565374
204	0xbc0d3254	-0.008617956
205	0xbe67c436	-0.22633442
206	0xbcde77d2	-0.027156744
207	0xbe4e3a65	-0.20139463
208	0xbc41c6d2	-0.011827188
209	0xbb4ab376	-0.003092972
210	0x3cc8a6ac	0.024493538
211	0xbdc79ab6	-0.09746306
212	0xbde922cb	-0.11383589
213	0xbb8d770c	-0.00431717
214	0xbe0cda07	-0.13755046
215	0xbe424763	-0.18972544
216	0xbbff78a7	-0.0077963653
217	0xbc215e95	-0.00984921
218	0xbe372c06	-0.17887887
219	0xbe52924f	-0.20563625
220	0xbc1b82d4	-0.009491641
221	0xbd8d887a	-0.069107965
222	0xbe00fd56	-0.1259664
223	0xbc0a03d5	-0.008423765
224	0xbc23798c	-0.0099777095
225	0xbc17feba	-0.00927704
226	0xbc342e3b	-0.01099735
227	0xbc7f68d3	-0.015588957
228	0xbe15e8df	-0.14639615
229	0xbc2213bb	-0.009892399
230	0xbda4d798	-0.08048934
231	0xbcbdd9e3	-0.023175186
232	0xbc359593	-0.011083025
233	0xbc022327	-0.007942951
234	0xbc1af767	-0.009458399
235	0xbe60f1a6	-0.21967182
236	0xbc012921	-0.007883341
237	0xbb158c53	-0.0022819235
238	0xbca5acb9	-0.020223962
239	0xbb9ace38	-0.00472429
240	0xbdce802d	-0.10083041
241	0xbe303ba9	-0.17210259
242	0xbb8d432f	-0.0043109874
243	0xbda3085d	-0.079605795
244	0xbc06ce77	-0.008227936
245	0xbc08c1af	-0.008346959
246	0xbe207afb	-0.15671913
247	0xbe4db79d	-0.20089574
248	0xbd15f07a	-0.03660629
249	0xbe083a07	-0.13303386
250	0xbc1688f9	-0.00918793
251	0xbc1a1b91	-0.009405986
252	0xbc10c640	-0.008836329
253	0xbde1119d	-0.109896876
254	0xbc220f95	-0.00989141
255	0xbc15e61a	-0.009149099

exp_avg f4 [20, 784]
0	0x80000004	-6e-45
1	0x80000004	-6e-45
2	0x80000004	-6e-45
3	0x80000004	-6e-45
4	0x80000004	-6e-45
5	0x80000004	-6e-45
6	0x80000004	-6e-45
7	0x80000004	-6e-45
8	0x80000004	-6e-45
9	0x80000004	-6e-45
10	0x80000004	-6e-45
11	0x80000004	-6e-45
12	0x80000004	-6e-45
13	0x80000004	-6e-45
14	0x80000004	-6e-45
15	0x80000004	-6e-45
16	0x80000004	-6e-45
17	0x80000004	-6e-45
18	0x80000004	-6e-45
19	0x80000004	-6e-45
20	0x80000004	-6e-45
21	0x80000004	-6e-45
22	0x80000004	-6e-45
23	0x80000004	-6e-45
24	0x80000004	-6e-45
25	0x80000004	-6e-45
26	0x80000004	-6e-45
27	0x80000004	-6e-45
28	0x80000004	-6e-45
29	0x80000004	-6e-45
30	0x80000004	-6e-45
31	0x80000004	-6e-45
32	0x80000004	-6e-45
33	0x80000004	-6e-45
34	0x80000004	-6e-45
35	0x80000004	-6e-45
36	0x80000004	-6e-45
37	0x80000004	-6e-45
38	0x80000004	-6e-45
39	0x80000004	-6e-45
40	0x80000004	-6e-45
41	0x80000004	-6e-45
42	0x80000004	-6e-45
43	0x80000004	-6e-45
44	0x80000004	-6e-45
45	0x80000004	-6e-45
46	0x80000004	-6e-45
47	0x80000004	-6e-45
48	0x80000004	-6e-45
49	0x80000004	-6e-45
50	0x80000004	-6e-45
51	0x80000004	-6e-45
52	0x80000004	-6e-45
53	0x80000004	-6e-45
54	0x80000004	-6e-45
55	0x80000004	-6e-45
56	0x80000004	-6e-45
57	0x80000004	-6e-45
58	0x80000004	-6e-45
59	0x80000004	-6e-45
60	0x80000004	-6e-45
61	0x80000004	-6e-45
62	0x80000004	-6e-45
63	0x80000004	-6e-45
64	0x80000004	-6e-45
65	0x80000004	-6e-45
66	0x80000004	-6e-45
67	0x80000004	-6e-45
68	0x80000004	-6e-45
69	0x80000004	-6e-45
70	0x80000004	-6e-45
71	0x80000004	-6e-45
72	0x80000004	-6e-45
73	0x80000004	-6e-45
74	0x80000004	-6e-45
75	0x80000004	-6e-45
76	0x80000004	-6e-45
77	0x80000004	-6e-45
78	0x80000004	-6e-45
79	0x80000004	-6e-45
80	0x80000004	-6e-45
81	0x80000004	-6e-45
82	0x80000004	-6e-45
83	0x80000004	-6e-45
84	0x80000004	-6e-45
85	0x80000004	-6e-45
86	0x80000004	-6e-45
87	0x80000004	-6e-45
88	0x80000004	-6e-45
89	0x80000004	-6e-45
90	0x80000004	-6e-45
91	0x80000004	-6e-45
92	0x80000004	-6e-45
93	0x80000004	-6e-45
94	0x80000004	-6e-45
95	0x80000004	-6e-45
96	0x80000004	-6e-45
97	0x80000004	-6e-45
98	0x80000004	-6e-45
99	0x80000004	-6e-45
100	0x80000004	-6e-45
101	0x80000004	-6e-45
102	0x80000004	-6e-45
103	0x80000004	-6e-45
104	0x80000004	-6e-45
105	0x80000004	-6e-45
106	0x80000004	-6e-45
107	0x80000004	-6e-45
108	0x80000004	-6e-45
109	0x80000004	-6e-45
110	0x80000004	-6e-45
111	0x80000004	-6e-45
112	0x80000004	-6e-45
113	0x80000004	-6e-45
114	0x80000004	-6e-45
115	0x80000004	-6e-45
116	0x80000004	-6e-45
117	0x80000004	-6e-45
118	0x80000004	-6e-45
119	0x80000004	-6e-45
120	0x80000004	-6e-45
121	0x80000004	-6e-45
122	0x80000004	-6e-45
123	0x80000004	-6e-45
124	0x80000004	-6e-45
125	0x80000004	-6e-45
126	0x80000004	-6e-45
127	0x80000004	-6e-45
128	0x80000004	-6e-45
129	0x80000004	-6e-45
130	0x80000004	-6e-45
131	0x80000004	-6e-45
132	0x80000004	-6e-45
133	0x80000004	-6e-45
134	0x80000004	-6e-45
135	0x80000004	-6e-45
136	0x80000004	-6e-45
137	0x80000004	-6e-45
138	0x80000004	-6e-45
139	0x80000004	-6e-45
140	0x80000004	-6e-45
141	0x80000004	-6e-45
142	0x80000004	-6e-45
143	0x80000004	-6e-45
144	0x80000004	-6e-45
145	0x80000004	-6e-45
146	0x80000004	-6e-45
147	0x80000004	-6e-45
148	0x80000004	-6e-45
149	0x80000004	-6e-45
150	0x80000004	-6e-45
151	0x80000004	-6e-45
152	0x80000004	-6e-45
153	0x80000004	-6e-45
154	0x80000004	-6e-45
155	0x80000004	-6e-45
156	0x80000004	-6e-45
157	0x80000004	-6e-45
158	0x80000004	-6e-45
159	0x80000004	-6e-45
160	0x80000004	-6e-45
161	0x80000004	-6e-45
162	0x80000004	-6e-45
163	0x80000004	-6e-45
164	0x80000004	-6e-45
165	0x80000004	-6e-45
166	0x80000004	-6e-45
167	0x80000004	-6e-45
168	0x80000004	-6e-45
169	0x80000004	-6e-45
170	0x80000004	-6e-45
171	0x80000004	-6e-45
172	0x80000004	-6e-45
173	0x80000004	-6e-45
174	0x80000004	-6e-45
175	0x80000004	-6e-45
176	0x80000004	-6e-45
177	0x80000004	-6e-45
178	0x80000004	-6e-45
179	0x80000004	-6e-45
180	0x80000004	-6e-45
181	0x80000004	-6e-45
182	0x80000004	-6e-45
183	0x80000004	-6e-45
184	0x80000004	-6e-45
185	0x80000004	-6e-45
186	0x80000004	-6e-45
187	0x80000004	-6e-45
188	0x80000004	-6e-45
189	0x80000004	-6e-45
190	0x80000004	-6e-45
191	0x80000004	-6e-45
192	0x80000004	-6e-45
193	0x80000004	-6e-45
194	0x80000004	-6e-45
195	0x80000004	-6e-45
196	0x80000004	-6e-45
197	0x80000004	-6e-45
198	0x80000004	-6e-45
199	0x80000004	-6e-45
200	0x80000004	-6e-45
201	0x80000004	-6e-45
202	0x80000004	-6e-45
203	0x80000004	-6e-45
204	0x80000004	-6e-45
205	0x80000004	-6e-45
206	0x80000004	-6e-45
207	0x80000004	-6e-45
208	0x00000004	6e-45
209	0x00000004	6e-45
210	0x00000004	6e-45
211	0x00000004	6e-45
212	0x00000004	6e-45
213	0x00000004	6e-45
214	0x80000004	-6e-45
215	0x80000004	-6e-45
216	0x80000004	-6e-45
217	0x80000004	-6e-45
218	0x80000004	-6e-45
219	0x80000004	-6e-45
220	0x80000004	-6e-45
221	0x80000004	-6e-45
222	0x80000004	-6e-45
223	0x80000004	-6e-45
224	0x80000004	-6e-45
225	0x80000004	-6e-45
226	0x80000004	-6e-45
227	0x80000004	-6e-45
228	0x80000004	-6e-45
229	0x80000004	-6e-45
230	0x80000004	-6e-45
231	0x80000004	-6e-45
232	0x80000004	-6e-45
233	0x80000004	-6e-45
234	0x80000004	-6e-45
235	0x00000004	6e-45
236	0x00000004	6e-45
237	0x00000004	6e-45
238	0x00000004	6e-45
239	0x00000004	6e-45
240	0x00000004	6e-45
241	0x00000004	6e-45
242	0x00000004	6e-45
243	0x80000004	-6e-45
244	0x80000004	-6e-45
245	0x80000004	-6e-45
246	0x80000004	-6e-45
247	0x80000004	-6e-45
248	0x80000004	-6e-45
249	0x80000004	-6e-45
250	0x80000004	-6e-45
251	0x80000004	-6e-45
252	0x80000004	-6e-45
253	0x80000004	-6e-45
254	0x80000004	-6e-45
255	0x80000004	-6e-45

exp_avg_sq f4 [20, 784]
0	0x2b65ea90	8.1682664e-13
1	0x2b65ea90	8.1682664e-13
2	0x2b65ea90	8.1682664e-13
3	0x2b65ea90	8.1682664e-13
4	0x2b65ea90	8.1682664e-13
5	0x2b65ea90	8.1682664e-13
6	0x2b65ea90	8.1682664e-13
7	0x2b65ea90	8.1682664e-13
8	0x2b65ea90	8.1682664e-13
9	0x2b65ea90	8.1682664e-13
10	0x2b65ea90	8.1682664e-13
11	0x2b65ea90	8.1682664e-13
12	0x2b65ea90	8.1682664e-13
13	0x2b65ea90	8.1682664e-13
14	0x2b65ea90	8.1682664e-13
15	0x2b65ea90	8.1682664e-13
16	0x2b65ea90	8.1682664e-13
17	0x2b65ea90	8.1682664e-13
18	0x2b65ea90	8.1682664e-13
19	0x2b65ea90	8.1682664e-13
20	0x2b65ea90	8.1682664e-13
21	0x2b65ea90	8.1682664e-13
22	0x2b65ea90	8.1682664e-13
23	0x2b65ea90	8.1682664e-13
24	0x2b65ea90	8.1682664e-13
25	0x2b65ea90	8.1682664e-13
26	0x2b65ea90	8.1682664e-13
27	0x2b65ea90	8.1682664e-13
28	0x2b65ea90	8.1682664e-13
29	0x2b65ea90	8.1682664e-13
30	0x2b65ea90	8.1682664e-13
31	0x2b65ea90	8.1682664e-13
32	0x2b65ea90	8.1682664e-13
33	0x2b65ea90	8.1682664e-13
34	0x2b65ea90	8.1682664e-13
35	0x2b65ea90	8.1682664e-13
36	0x2b65ea90	8.1682664e-13
37	0x2b65ea90	8.1682664e-13
38	0x2b65ea90	8.1682664e-13
39	0x2b65ea90	8.1682664e-13
40	0x2b65ea90	8.1682664e-13
41	0x2b65ea90	8.1682664e-13
42	0x2b65ea90	8.1682664e-13
43	0x2b657182	8.1514667e-13
44	0x2b60ee38	7.991138e-13
45	0x2b6489d6	8.119316e-13
46	0x2b65ea90	8.1682664e-13
47	0x2b65ea90	8.1682664e-13
48	0x2b65ea90	8.1682664e-13
49	0x2b65ea90	8.1682664e-13
50	0x2b65ea90	8.1682664e-13
51	0x2b65ea90	8.1682664e-13
52	0x2b65ea90	8.1682664e-13
53	0x2b65ea90	8.1682664e-13
54	0x2b65ea90	8.1682664e-13
55	0x2b65ea90	8.1682664e-13
56	0x2b65ea90	8.1682664e-13
57	0x2b65ea90	8.1682664e-13
58	0x2b65ea90	8.1682664e-13
59	0x2b65ea90	8.1682664e-13
60	0x2b65ea90	8.1682664e-13
61	0x2b65ea90	8.1682664e-13
62	0x2b65ea90	8.1682664e-13
63	0x2b65ea90	8.1682664e-13
64	0x2b65ea90	8.1682664e-13
65	0x2b65ea90	8.1682664e-13
66	0x2b65e436	8.167385e-13
67	0x2b65dad5	8.1660834e-13
68	0x2b65d6bd	8.165515e-13
69	0x2b65e8fc	8.1680474e-13
70	0x2b65ea90	8.1682664e-13
71	0x2b5fcb7f	7.950792e-13
72	0x2b59540b	7.721052e-13
73	0x2b5ba730	7.803645e-13
74	0x2b5d4104	7.86052e-13
75	0x2b542cb3	7.537956e-13
76	0x2b4dfdbd	7.3182763e-13
77	0x2b65280c	8.141272e-13
78	0x2b65ea90	8.1682664e-13
79	0x2b65ea90	8.1682664e-13
80	0x2b65ea90	8.1682664e-13
81	0x2b65ea90	8.1682664e-13
82	0x2b65ea90	8.1682664e-13
83	0x2b65ea90	8.1682664e-13
84	0x2b65ea90	8.1682664e-13
85	0x2b65ea90	8.1682664e-13
86	0x2b65ea90	8.1682664e-13
87	0x2b65ea90	8.1682664e-13
88	0x2b65ea90	8.1682664e-13
89	0x2b65ea90	8.1682664e-13
90	0x2b65ea90	8.1682664e-13
91	0x2b65ea90	8.1682664e-13
92	0x2b65ea90	8.1682664e-13
93	0x2b65e54e	8.167537e-13
94	0x2b65d335	8.165025e-13
95	0x2b65bdfd	8.1620805e-13
96	0x2b5bf6d3	7.8146967e-13
97	0x2b5597f4	7.588368e-13
98	0x2b3cb717	6.7045105e-13
99	0x2b215dc7	5.732883e-13
100	0x2b2fe110	6.2484826e-13
101	0x2b2859bf	5.981014e-13
102	0x2b2f81c3	6.235257e-13
103	0x2b356838	6.444875e-13
104	0x2b429ec7	6.9142993e-13
105	0x2b604d92	7.9688437e-13
106	0x2b65ea90	8.1682664e-13
107	0x2b65ea90	8.1682664e-13
108	0x2b65ea90	8.1682664e-13
109	0x2b65ea90	8.1682664e-13
110	0x2b65ea90	8.1682664e-13
111	0x2b65ea90	8.1682664e-13
112	0x2b65ea90	8.1682664e-13
113	0x2b65ea90	8.1682664e-13
114	0x2b65ea90	8.1682664e-13
115	0x2b65ea90	8.1682664e-13
116	0x2b65ea90	8.1682664e-13
117	0x2b65ea90	8.1682664e-13
118	0x2b65ea90	8.1682664e-13
119	0x2b65ea90	8.1682664e-13
120	0x2b65f160	8.169212e-13
121	0x2b65f773	8.170055e-13
122	0x2b656982	8.1503565e-13
123	0x2b47cf01	7.098628e-13
124	0x2b16c367	5.356188e-13
125	0x2afa1735	4.4425024e-13
126	0x2ad91d97	3.8567475e-13
127	0x2abf9a3e	3.4035443e-13
128	0x2add85c6	3.935031e-13
129	0x2af14fd6	4.2865597e-13
130	0x2b06a627	4.7836946e-13
131	0x2b1b062a	5.5075616e-13
132	0x2b336f89	6.374836e-13
133	0x2b4d54a6	7.2948104e-13
134	0x2b589460	7.6944527e-13
135	0x2b65ea90	8.1682664e-13
136	0x2b65ea90	8.1682664e-13
137	0x2b65ea90	8.1682664e-13
138	0x2b65ea90	8.1682664e-13
139	0x2b65ea90	8.1682664e-13
140	0x2b65ea90	8.1682664e-13
141	0x2b65ea90	8.1682664e-13
142	0x2b65ea90	8.1682664e-13
143	0x2b65ea90	8.1682664e-13
144	0x2b65ea90	8.1682664e-13
145	0x2b65ea90	8.1682664e-13
146	0x2b64ff7c	8.135643e-13
147	0x2b592ea3	7.715861e-13
148	0x2b3f2528	6.7908396e-13
149	0x2b32c7b0	6.3515426e-13
150	0x2b2062ed	5.6980706e-13
151	0x2aeefbc4	4.245199e-13
152	0x2a7eb942	2.2624006e-13
153	0x2a0d79e5	1.2565606e-13
154	0x2a0bd0fd	1.2418187e-13
155	0x2a11a67d	1.2936349e-13
156	0x2a132451	1.3068823e-13
157	0x2a15b3d6	1.3296252e-13
158	0x2a91e0c8	2.5913147e-13
159	0x2af6d4cd	4.3846038e-13
160	0x2b1b061b	5.5075535e-13
161	0x2b1d9f08	5.5998305e-13
162	0x2b36fbdb	6.500891e-13
163	0x2b557b8d	7.584426e-13
164	0x2b5d6c4c	7.8665264e-13
165	0x2b65ea90	8.1682664e-13
166	0x2b65ea90	8.1682664e-13
167	0x2b65ea90	8.1682664e-13
168	0x2b65ea90	8.1682664e-13
169	0x2b65ea90	8.1682664e-13
170	0x2b65ea90	8.1682664e-13
171	0x2b65ea90	8.1682664e-13
172	0x2b65ea90	8.1682664e-13
173	0x2b65e01a	8.1668147e-13
174	0x2b61c869	8.0214183e-13
175	0x2b3eb78e	6.7756293e-13
176	0x2b1be583	5.5385574e-13
177	0x2adb418d	3.89477e-13
178	0x2a9a9fcb	2.7466774e-13
179	0x29dea12f	9.8867414e-14
180	0x28f4bdaf	2.7171704e-14
181	0x27dedfa9	6.185987e-15
182	0x279d8e29	4.3730384e-15
183	0x283fd005	1.0647737e-14
184	0x26e33f4b	1.5768445e-15
185	0x27efcf76	6.6560755e-15
186	0x29d34392	9.382004e-14
187	0x2a8c8bad	2.4965915e-13
188	0x2ad6b303	3.813825e-13
189	0x2b0e6421	5.058749e-13
190	0x2b36b56f	6.491118e-13
191	0x2b565a0c	7.615304e-13
192	0x2b5a333e	7.752027e-13
193	0x2b65ea90	8.1682664e-13
194	0x2b65ea90	8.1682664e-13
195	0x2b65ea90	8.1682664e-13
196	0x2b65ea90	8.1682664e-13
197	0x2b65ea90	8.1682664e-13
198	0x2b65ea90	8.1682664e-13
199	0x2b65e6b1	8.167729e-13
200	0x2b65a190	8.1581356e-13
201	0x2b62fe2d	8.064407e-13
202	0x2b4bbd23	7.238257e-13
203	0x2b250e7b	5.863987e-13
204	0x2ad56a29	3.7910064e-13
205	0x2a368708	1.6211696e-13
206	0x29d1377a	9.291088e-14
207	0x28946b60	1.6477867e-14
208	0x252182de	1.4008864e-16
209	0x28624bbe	1.2561944e-14
210	0x28ccd816	2.2742262e-14
211	0x28884a3c	1.5131227e-14
212	0x28916215	1.614077e-14
213	0x28011957	7.166433e-15
214	0x2695dfd3	1.039962e-15
215	0x299272f4	6.5036437e-14
216	0x2a89ba70	2.4465456e-13
217	0x2b0dba99	5.035222e-13
218	0x2b3de8d8	6.7469424e-13
219	0x2b597ffb	7.7271495e-13
220	0x2b5b4027	7.789346e-13
221	0x2b65d7af	8.1656464e-13
222	0x2b65ea90	8.1682664e-13
223	0x2b65ea90	8.1682664e-13
224	0x2b65ea90	8.1682664e-13
225	0x2b65ea90	8.1682664e-13
226	0x2b656625	8.1498897e-13
227	0x2b64ee9c	8.133301e-13
228	0x2b64a1da	8.1226486e-13
229	0x2b59b084	7.733885e-13
230	0x2b2155f3	5.731797e-13
231	0x2ad603f5	3.8016782e-13
232	0x2a81a8ad	2.3032046e-13
233	0x2a118d8c	1.2927696e-13
234	0x29027b15	2.8972555e-14
235	0x25d2e857	3.6586633e-16
236	0x28602f5a	1.2444766e-14
237	0x28091376	7.609248e-15
238	0x286300e6	1.2601226e-14
239	0x282b2d99	9.502294e-15
240	0x2880a683	1.4283068e-14
241	0x28f7df48	2.7519342e-14
242	0x2707c87d	1.8843698e-15
243	0x2959e051	4.8378243e-14
244	0x2a8e943e	2.532713e-13
245	0x2b15b088	5.318042e-13
246	0x2b3e1adb	6.753883e-13
247	0x2b625fd9	8.0424344e-13
248	0x2b63f607	8.098803e-13
249	0x2b659b4b	8.1572656e-13
250	0x2b65ea90	8.1682664e-13
251	0x2b65ea90	8.1682664e-13
252	0x2b65ea90	8.1682664e-13
253	0x2b65ea90	8.1682664e-13
254	0x2b6526f3	8.1411196e-13
255	0x2b64abe6	8.124043e-13

exp_avg f4 [20]
0	0x00000004	6e-45
1	0x00000004	6e-45
2	0x00000004	6e-45
3	0x00000004	6e-45
4	0x00000004	6e-45
5	0x00000004	6e-45
6	0x00000004	6e-45
7	0x00000004	6e-45
8	0x00000004	6e-45
9	0x00000004	6e-45
10	0x00000004	6e-45
11	0x00000004	6e-45
12	0x00000004	6e-45
13	0x00000004	6e-45
14	0x00000004	6e-45
15	0x00000004	6e-45
16	0x00000004	6e-45
17	0x00000004	6e-45
18	0x00000004	6e-45
19	0x00000004	6e-45

exp_avg_sq f4 [20]
0	0x2b65e8fc	8.1680474e-13
1	0x274f3986	2.8758204e-15
2	0x260894fe	4.73864e-16
3	0x238cf2f2	1.5281722e-17
4	0x27b8edf6	5.1328257e-15
5	0x2a099385	1.2219225e-13
6	0x256b362f	2.0401359e-16
7	0x272ffeaf	2.4424193e-15
8	0x2a48db5c	1.7839674e-13
9	0x2432a48b	3.873697e-17
10	0x251ee3a0	1.3781438e-16
11	0x2d45c709	1.1242348e-11
12	0x2a885cb5	2.4222781e-13
13	0x2a385c06	1.637441e-13
14	0x275d45ab	3.0707678e-15
15	0x299e4d64	7.0300346e-14
16	0x2a11bb70	1.2943618e-13
17	0x2ae74a1f	4.1085275e-13
18	0x245da08d	4.8057728e-17
19	0x2b647366	8.116202e-13

exp_avg f4 [784, 20]
0	0x00000004	6e-45
1	0x00000004	6e-45
2	0x00000000	0.0
3	0x00000000	0.0
4	0x00000000	0.0
5	0x00000004	6e-45
6	0x00000000	0.0
7	0x00000000	0.0
8	0x00000000	0.0
9	0x00000000	0.0
10	0x00000000	0.0
11	0x00000004	6e-45
12	0x00000004	6e-45
13	0x00000004	6e-45
14	0x00000000	0.0
15	0x00000000	0.0
16	0x00000004	6e-45
17	0x00000000	0.0
18	0x00000004	6e-45
19	0x00000004	6e-45
20	0x00000004	6e-45
21	0x00000004	6e-45
22	0x00000000	0.0
23	0x00000004	6e-45
24	0x00000004	6e-45
25	0x00000004	6e-45
26	0x00000004	6e-45
27	0x00000004	6e-45
28	0x00000004	6e-45
29	0x00000004	6e-45
30	0x00000004	6e-45
31	0x00000004	6e-45
32	0x00000004	6e-45
33	0x00000004	6e-45
34	0x00000004	6e-45
35	0x00000004	6e-45
36	0x00000004	6e-45
37	0x00000004	6e-45
38	0x00000004	6e-45
39	0x00000004	6e-45
40	0x00000004	6e-45
41	0x00000004	6e-45
42	0x00000000	0.0
43	0x00000000	0.0
44	0x00000004	6e-45
45	0x00000004	6e-45
46	0x00000000	0.0
47	0x00000004	6e-45
48	0x00000004	6e-45
49	0x00000000	0.0
50	0x00000004	6e-45
51	0x00000004	6e-45
52	0x00000004	6e-45
53	0x00000004	6e-45
54	0x00000004	6e-45
55	0x00000004	6e-45
56	0x00000004	6e-45
57	0x00000004	6e-45
58	0x00000004	6e-45
59	0x00000004	6e-45
60	0x00000004	6e-45
61	0x00000004	6e-45
62	0x00000000	0.0
63	0x00000004	6e-45
64	0x00000004	6e-45
65	0x00000004	6e-45
66	0x00000000	0.0
67	0x00000004	6e-45
68	0x00000004	6e-45
69	0x00000004	6e-45
70	0x00000004	6e-45
71	0x00000004	6e-45
72	0x00000004	6e-45
73	0x00000004	6e-45
74	0x00000004	6e-45
75	0x00000004	6e-45
76	0x00000004	6e-45
77	0x00000004	6e-45
78	0x00000004	6e-45
79	0x00000004	6e-45
80	0x00000004	6e-45
81	0x00000004	6e-45
82	0x00000000	0.0
83	0x00000004	6e-45
84	0x00000004	6e-45
85	0x00000004	6e-45
86	0x00000004	6e-45
87	0x00000004	6e-45
88	0x00000004	6e-45
89	0x00000004	6e-45
90	0x00000004	6e-45
91	0x00000004	6e-45
92	0x00000004	6e-45
93	0x00000004	6e-45
94	0x00000004	6e-45
95	0x00000004	6e-45
96	0x00000004	6e-45
97	0x00000004	6e-45
98	0x00000004	6e-45
99	0x00000004	6e-45
100	0x00000004	6e-45
101	0x00000000	0.0
102	0x00000000	0.0
103	0x00000004	6e-45
104	0x00000000	0.0
105	0x00000000	0.0
106	0x00000004	6e-45
107	0x00000000	0.0
108	0x00000000	0.0
109	0x00000000	0.0
110	0x00000000	0.0
111	0x00000004	6e-45
112	0x00000004	6e-45
113	0x00000004	6e-45
114	0x00000000	0.0
115	0x00000000	0.0
116	0x00000000	0.0
117	0x00000004	6e-45
118	0x00000000	0.0
119	0x00000004	6e-45
120	0x00000004	6e-45
121	0x00000004	6e-45
122	0x00000000	0.0
123	0x00000004	6e-45
124	0x00000004	6e-45
125	0x00000004	6e-45
126	0x00000004	6e-45
127	0x00000004	6e-45
128	0x00000004	6e-45
129	0x00000004	6e-45
130	0x00000004	6e-45
131	0x00000004	6e-45
132	0x00000004	6e-45
133	0x00000004	6e-45
134	0x00000004	6e-45
135	0x00000004	6e-45
136	0x00000004	6e-45
137	0x00000004	6e-45
138	0x00000004	6e-45
139	0x00000004	6e-45
140	0x00000004	6e-45
141	0x00000004	6e-45
142	0x00000000	0.0
143	0x00000000	0.0
144	0x00000000	0.0
145	0x00000004	6e-45
146	0x00000000	0.0
147	0x00000000	0.0
148	0x00000000	0.0
149	0x00000000	0.0
150	0x00000000	0.0
151	0x00000004	6e-45
152	0x00000004	6e-45
153	0x00000004	6e-45
154	0x00000004	6e-45
155	0x00000004	6e-45
156	0x00000004	6e-45
157	0x00000000	0.0
158	0x00000000	0.0
159	0x00000004	6e-45
160	0x00000000	0.0
161	0x00000000	0.0
162	0x00000000	0.0
163	0x00000000	0.0
164	0x00000000	0.0
165	0x00000000	0.0
166	0x00000000	0.0
167	0x00000000	0.0
168	0x00000000	0.0
169	0x00000000	0.0
170	0x00000000	0.0
171	0x00000004	6e-45
172	0x00000000	0.0
173	0x00000004	6e-45
174	0x00000000	0.0
175	0x00000000	0.0
176	0x00000000	0.0
177	0x00000004	6e-45
178	0x00000000	0.0
179	0x00000000	0.0
180	0x00000000	0.0
181	0x00000000	0.0
182	0x00000000	0.0
183	0x00000000	0.0
184	0x00000000	0.0
185	0x00000000	0.0
186	0x00000000	0.0
187	0x00000000	0.0
188	0x00000000	0.0
189	0x00000000	0.0
190	0x00000000	0.0
191	0x00000000	0.0
192	0x00000000	0.0
193	0x00000000	0.0
194	0x00000000	0.0
195	0x00000000	0.0
196	0x00000000	0.0
197	0x00000000	0.0
198	0x00000000	0.0
199	0x00000000	0.0
200	0x00000004	6e-45
201	0x00000004	6e-45
202	0x00000000	0.0
203	0x00000000	0.0
204	0x00000004	6e-45
205	0x00000004	6e-45
206	0x00000000	0.0
207	0x00000004	6e-45
208	0x00000004	6e-45
209	0x00000000	0.0
210	0x00000000	0.0
211	0x00000004	6e-45
212	0x00000004	6e-45
213	0x00000004	6e-45
214	0x00000004	6e-45
215	0x00000004	6e-45
216	0x00000004	6e-45
217	0x00000004	6e-45
218	0x00000004	6e-45
219	0x00000004	6e-45
220	0x00000004	6e-45
221	0x00000004	6e-45
222	0x00000000	0.0
223	0x00000004	6e-45
224	0x00000004	6e-45
225	0x00000004	6e-45
226	0x00000004	6e-45
227	0x00000004	6e-45
228	0x00000004	6e-45
229	0x00000000	0.0
230	0x00000004	6e-45
231	0x00000004	6e-45
232	0x00000004	6e-45
233	0x00000004	6e-45
234	0x00000004	6e-45
235	0x00000004	6e-45
236	0x00000004	6e-45
237	0x00000004	6e-45
238	0x00000004	6e-45
239	0x00000004	6e-45
240	0x00000004	6e-45
241	0x00000004	6e-45
242	0x00000004	6e-45
243	0x00000004	6e-45
244	0x00000004	6e-45
245	0x00000004	6e-45
246	0x00000004	6e-45
247	0x00000004	6e-45
248	0x00000004	6e-45
249	0x00000004	6e-45
250	0x00000004	6e-45
251	0x00000004	6e-45
252	0x00000004	6e-45
253	0x00000004	6e-45
254	0x00000004	6e-45
255	0x00000004	6e-45

exp_avg_sq f4 [784, 20]
0	0x228179bc	3.509441e-18
1	0x1fb39fca	7.60738e-20
2	0x00000000	0.0
3	0x00000000	0.0
4	0x00000000	0.0
5	0x2084b079	2.247845e-19
6	0x00000000	0.0
7	0x00000000	0.0
8	0x00000000	0.0
9	0x00000000	0.0
10	0x00000000	0.0
11	0x234a38f9	1.0962506e-17
12	0x1f84d11e	5.625013e-20
13	0x2114299a	5.019941e-19
14	0x00000000	0.0
15	0x00000000	0.0
16	0x228ab8a1	3.760046e-18
17	0x00000000	0.0
18	0x1c251dc7	5.4632407e-22
19	0x22dff072	6.0698852e-18
20	0x26afe29e	1.2204489e-15
21	0x247eacd1	5.522385e-17
22	0x00000000	0.0
23	0x1ceaa62b	1.5527774e-21
24	0x228ab771	3.75992e-18
25	0x25685a85	2.0153462e-16
26	0x1eb5e214	1.9257624e-20
27	0x221eb839	2.151052e-18
28	0x24b1c2f6	7.709179e-17
29	0x1f76fd1c	5.2301893e-20
30	0x1d6fba08	3.1727563e-21
31	0x288b6ff6	1.5480655e-14
32	0x25de75d9	3.8590718e-16
33	0x25b4a092	3.133383e-16
34	0x210ef434	4.843467e-19
35	0x2469db54	5.07096e-17
36	0x2599e362	2.669535e-16
37	0x2464d2ba	4.961811e-17
38	0x1fa1037e	6.819193e-20
39	0x26e5abc7	1.5936627e-15
40	0x23b69278	1.9794511e-17
41	0x231ffa3b	8.672396e-18
42	0x00000000	0.0
43	0x00000000	0.0
44	0x1f94b890	6.298577e-20
45	0x218d59d2	9.578307e-19
46	0x00000000	0.0
47	0x20a336a0	2.7649422e-19
48	0x222a7db2	2.3105839e-18
49	0x00000000	0.0
50	0x19377101	9.483699e-24
51	0x27a39ac6	4.5409394e-15
52	0x22ee48b3	6.4587003e-18
53	0x23b7f40e	1.9944261e-17
54	0x1e9d3679	1.6645551e-20
55	0x2230c0f9	2.3954607e-18
56	0x2245bb7e	2.6797736e-18
57	0x26424379	6.7398713e-16
58	0x1c73213f	8.0444925e-22
59	0x241a6514	3.3479043e-17
60	0x2762bfcf	3.146778e-15
61	0x25261a87	1.4407193e-16
62	0x00000000	0.0
63	0x1d093035	1.8156721e-21
64	0x22d4e424	5.770427e-18
65	0x2625ab52	5.7478057e-16
66	0x00000000	0.0
67	0x22a002be	4.337099e-18
68	0x2532ebab	1.5518886e-16
69	0x1fd00455	8.8098593e-20
70	0x1db88656	4.8843295e-21
71	0x292a3497	3.7793197e-14
72	0x2679a411	8.661158e-16
73	0x26cb1a7e	1.4093135e-15
74	0x2284c5e8	3.5988213e-18
75	0x2504bd77	1.1513368e-16
76	0x262e80d1	6.0542956e-16
77	0x26cf727f	1.4394545e-15
78	0x2106a182	4.561472e-19
79	0x27657a09	3.184629e-15
80	0x276c4b7a	3.2792495e-15
81	0x2532f2e3	1.5521332e-16
82	0x00000000	0.0
83	0x1ce0870c	1.4857985e-21
84	0x22e39dab	6.169541e-18
85	0x26321154	6.177964e-16
86	0x1eb47590	1.9106864e-20
87	0x22a4b760	4.4646445e-18
88	0x25453f4f	1.7108476e-16
89	0x1fb618cb	7.7121015e-20
90	0x1dce3b50	5.4589074e-21
91	0x29307de6	3.918905e-14
92	0x26869b7b	9.340261e-16
93	0x26d84c62	1.5008714e-15
94	0x22863888	3.6380628e-18
95	0x2516be0a	1.3074814e-16
96	0x26444505	6.80947e-16
97	0x26e2f7cf	1.5749069e-15
98	0x210950c9	4.6524324e-19
99	0x27783ef0	3.4451032e-15
100	0x1fb838fd	7.802131e-20
101	0x00000000	0.0
102	0x00000000	0.0
103	0x1cf21c29	1.6021496e-21
104	0x00000000	0.0
105	0x00000000	0.0
106	0x1eb36cf4	1.8997424e-20
107	0x00000000	0.0
108	0x00000000	0.0
109	0x00000000	0.0
110	0x00000000	0.0
111	0x24495ce4	4.366361e-17
112	0x1c9c0cba	1.0326504e-21
113	0x1bf5aa65	4.0641965e-22
114	0x00000000	0.0
115	0x00000000	0.0
116	0x00000000	0.0
117	0x2506cba4	1.1691643e-16
118	0x00000000	0.0
119	0x2135d27a	6.160375e-19
120	0x275fec7a	3.107566e-15
121	0x252f81c0	1.5222791e-16
122	0x00000000	0.0
123	0x1d235a1f	2.1619462e-21
124	0x22ce2b52	5.588228e-18
125	0x2631fc0d	6.1750804e-16
126	0x1ece6d5f	2.1856333e-20
127	0x22aa6232	4.618256e-18
128	0x25382b2c	1.5974083e-16
129	0x1fc362ef	8.2749384e-20
130	0x1ddf535f	5.9113812e-21
131	0x2934a932	4.0114782e-14
132	0x2683be34	9.141506e-16
133	0x26cfc42c	1.4416683e-15
134	0x22855b3e	3.614633e-18
135	0x250a6295	1.2002993e-16
136	0x2641a56c	6.7184515e-16
137	0x2708dc71	1.8993293e-15
138	0x21057ef3	4.523017e-19
139	0x2767215d	3.2075776e-15
140	0x21b49479	1.2236575e-18
141	0x21c5e481	1.3409724e-18
142	0x00000000	0.0
143	0x00000000	0.0
144	0x00000000	0.0
145	0x23010337	6.993785e-18
146	0x00000000	0.0
147	0x00000000	0.0
148	0x00000000	0.0
149	0x00000000	0.0
150	0x00000000	0.0
151	0x23e1358f	2.4417232e-17
152	0x20019300	1.0975363e-19
153	0x22a78452	4.540554e-18
154	0x1dcec262	5.4728733e-21
155	0x21694d36	7.904566e-19
156	0x2166007b	7.7927667e-19
157	0x00000000	0.0
158	0x00000000	0.0
159	0x2266d41d	3.1283104e-18
160	0x00000000	0.0
161	0x00000000	0.0
162	0x00000000	0.0
163	0x00000000	0.0
164	0x00000000	0.0
165	0x00000000	0.0
166	0x00000000	0.0
167	0x00000000	0.0
168	0x00000000	0.0
169	0x00000000	0.0
170	0x00000000	0.0
171	0x20d5ea9f	3.6238863e-19
172	0x00000000	0.0
173	0x1bd6031d	3.5405342e-22
174	0x00000000	0.0
175	0x00000000	0.0
176	0x00000000	0.0
177	0x23e45ecb	2.4759956e-17
178	0x00000000	0.0
179	0x00000000	0.0
180	0x00000000	0.0
181	0x00000000	0.0
182	0x00000000	0.0
183	0x00000000	0.0
184	0x00000000	0.0
185	0x00000000	0.0
186	0x00000000	0.0
187	0x00000000	0.0
188	0x00000000	0.0
189	0x00000000	0.0
190	0x00000000	0.0
191	0x00000000	0.0
192	0x00000000	0.0
193	0x00000000	0.0
194	0x00000000	0.0
195	0x00000000	0.0
196	0x00000000	0.0
197	0x00000000	0.0
198	0x00000000	0.0
199	0x00000000	0.0
200	0x251a88a9	1.3403673e-16
201	0x23880d37	1.4750746e-17
202	0x00000000	0.0
203	0x00000000	0.0
204	0x212000fd	5.4211417e-19
205	0x22cd6e3c	5.5682077e-18
206	0x00000000	0.0
207	0x1d2b4939	2.2669517e-21
208	0x22cd14e8	5.5587497e-18
209	0x00000000	0.0
210	0x00000000	0.0
211	0x26ce2091	1.4302949e-15
212	0x22dba63d	5.953608e-18
213	0x241e846c	3.4372954e-17
214	0x1f569e55	4.5447232e-20
215	0x22bb2cd8	5.073393e-18
216	0x24138569	3.1988547e-17
217	0x1e97f315	1.6088283e-20
218	0x1de8d4de	6.162999e-21
219	0x2584850c	2.2988506e-16
220	0x2695e8e1	1.0402074e-15
221	0x24425859	4.2141878e-17
222	0x00000000	0.0
223	0x1cf5311b	1.6225433e-21
224	0x218187f6	8.777369e-19
225	0x24d4537a	9.208176e-17
226	0x1eb42d68	1.9077021e-20
227	0x21cb95ed	1.37955e-18
228	0x24733279	5.2734978e-17
229	0x00000000	0.0
230	0x19533192	1.0918455e-23
231	0x28945e2f	1.6472146e-14
232	0x2595a55d	2.5959434e-16
233	0x26481289	6.941406e-16
234	0x22005cd5	1.739638e-18
235	0x2442af4f	4.2215536e-17
236	0x25bfe556	3.3288622e-16
237	0x26b27e28	1.2385426e-15
238	0x2060ce7b	1.9041857e-19
239	0x265d5f22	7.6803707e-16
240	0x276062a0	3.113971e-15
241	0x252c8d97	1.4966594e-16
242	0x1e874965	1.4324036e-20
243	0x1d15a2b3	1.98041e-21
244	0x22c4d9be	5.335645e-18
245	0x2621d323	5.614424e-16
246	0x1eb93502	1.960956e-20
247	0x22c10cd0	5.232632e-18
248	0x253c8f76	1.6355007e-16
249	0x1fb7aca0	7.77891e-20
250	0x1dae97df	4.6214448e-21
251	0x293375ce	3.9848164e-14
252	0x267ed11a	8.840734e-16
253	0x26e1b1ed	1.5660738e-15
254	0x229511a7	4.040522e-18
255	0x250d2922	1.2243737e-16
