exercise_08/lightning_logs/cĺs_logs/version_5/checkpoints/epoch=99-step=200.ckpt (torch, 233900 bytes, 18 tensors)

encoder.encoder.0.weight f4 [20, 784]
000000 74 61 0d 3d 3a f5 16 3d e3 64 97 ba 59 eb 23 3d
       0.034516767 0.03685496 -0.0011550452 0.040019367
000010 bf c5 20 ba 24 3c 6c 3c a1 b8 26 bc c4 e6 e6 3c
       -0.0006132982 0.0144186355 -0.010175855 0.02818621
000020 2b 7f 1e 3d 31 8f 9b bc cb b0 1c 3d 69 ac 63 3c
       0.038695496 -0.018989177 0.03825454 0.013896086
000030 e7 9d 09 3d 9f 67 45 3c 5d 27 c8 3c b0 2a 0e 3b
       0.033597853 0.012048631 0.024432832 0.0021692924
000040 28 4f 0e 3d db a5 4c 3c 6f 02 1b bc bf a7 85 3c
       0.034743458 0.012490715 -0.009461029 0.01631534
000050 30 70 17 bc 1b 26 46 3b 0b 01 ef bb a7 29 fd 3c
       -0.009243056 0.0030235115 -0.0072938255 0.03090365
000060 2d de ab bc 30 99 17 bc ac 48 3c bb f6 ab 69 bc
       -0.020979965 -0.009252831 -0.002872984 -0.01426219
000070 db 62 2d 3c 2c e3 e5 bc ce a6 21 3d 6b 73 bd bc
       0.010582651 -0.028062426 0.039465718 -0.023126325
000080 e8 79 0e 3d 9b 89 57 3c 0c ae 8f bb b2 df ef 3c
       0.034784228 0.013155366 -0.0043847617 0.02928147
000090 7f 5a 51 3c ae bb 13 3d 4d 20 36 3c 6f c2 84 bb
       0.012777924 0.036067657 0.0111161 -0.0040514986
0000a0 3f b0 89 3c 9d 14 22 bb cf 35 b6 3c 91 25 20 3d
       0.016807673 -0.0024731525 0.022242455 0.039098326
0000b0 f9 33 e4 3c 5d a6 09 bc 70 f8 e3 3c 20 db 5e 3c
       0.027856814 -0.0084014805 0.027828425 0.013602048
0000c0 47 a8 cf 3c 2f 7d 6e bc 26 8a e6 bc c3 d5 d7 bb
       0.025348796 -0.014556213 -0.028142046 -0.0065867617
0000d0 66 54 a5 bc 9e 92 15 3d 5b 59 8f 3c 2f 44 b4 3c
       -0.020181846 0.03651678 0.017498663 0.022005169
0000e0 b8 9b 97 3c 80 f5 d7 3b 27 06 10 3d f4 cb 94 bc
       0.01850687 0.006590545 0.035162117 -0.018163659
0000f0 57 00 1b 3c ca 9c 8c bc 56 4b 95 3c 5e b5 a6 bb
       0.00946053 -0.017164607 0.0182244 -0.0050875386
000100 5b ba 94 3c e3 0e 70 b9 28 de 16 3d 21 a8 64 bc
       0.018155267 -0.0002289373 0.03683296 -0.013956101
000110 cb d1 66 bc 2f d7 66 bc 81 1d 21 3d 3d 94 9c 3c
       -0.0140881045 -0.01408939 0.039334778 0.019113654
000120 9b 4d 2a 3d 7b 5f b6 bc 90 b8 e7 bc ab 2a b2 bc
       0.041577917 -0.022262326 -0.028286248 -0.021748861
000130 d9 0d 94 bc 03 ce af 3c 92 d7 a3 3c 8c 17 17 3d
       -0.01807301 0.021460539 0.020000253 0.03688769
000140 29 06 38 bc bf 5e 8c bc b2 4f d6 3c b0 b7 ec bb
       -0.011231937 -0.017135022 0.026161049 -0.0072240457
000150 db a5 ec 3c c5 91 a5 ba 90 71 e2 3c 46 3d a8 bc
       0.02888768 -0.0012631944 0.027642041 -0.02053703
000160 37 22 31 bc 06 47 94 3c b7 dc 71 3c cb 3a f8 ba
       -0.01081138 0.018100273 0.014762095 -0.001893842
000170 e2 78 e9 3c 6b fc 00 3d 59 eb 98 bc 9b 01 41 bc
       0.028500024 0.031490725 -0.01866691 -0.011780168
000180 33 d2 23 3d ac 4b b3 bb dc 33 e7 bb 1b 22 ec bc
       0.039995383 -0.0054716673 -0.0070557427 -0.028824857
000190 95 32 77 bc bf 3e 5b 3c ef b1 80 3a bc 67 a3 bc
       -0.015087743 0.013381659 0.0009818653 -0.019946925
0001a0 23 ac e0 3b a3 39 8d bc 28 23 bd bc ca 0e 4c bc
       0.006856458 -0.017239397 -0.023088053 -0.012454698
0001b0 97 fb c4 bc 92 6c 7e bc a3 c4 2f 3d 69 ad 64 3c
       -0.024045749 -0.015528815 0.042912137 0.01395736
0001c0 ef 3c 95 3c 29 cc d5 bc ef 12 85 bc 1e 38 99 bb
       0.018217532 -0.026098328 -0.01624438 -0.004675879
0001d0 71 a8 51 3c 99 02 c6 bc 62 d6 04 bc cf 31 68 bc
       0.012796507 -0.02417116 -0.0081077535 -0.014172032
0001e0 1e b7 e9 3b db e9 d0 bb 4c 3b 94 3b 6c eb 8b bc
       0.007132425 -0.006375534 0.0045236703 -0.017080031
0001f0 20 ec 96 bc 74 7f 67 bc 54 a8 a0 bb d6 a2 b8 bc
       -0.01842314 -0.014129508 -0.004902879 -0.022538584
000200 04 40 06 3d 10 1b e5 bb d7 66 14 3d 25 ca 90 3c
       0.032775894 -0.0069917515 0.03623089 0.017674515
000210 cb 68 be bc e9 6a 02 3d 06 1e 2c bb a6 48 d4 bb
       -0.023243329 0.03184024 -0.0026263013 -0.006478387
000220 8f c6 b7 bc a0 c8 e7 bc 7f c9 8e 3c 9d 98 1a ba
       -0.022433547 -0.028293908 0.017430065 -0.0005897375
000230 ef fb ac 3c fd 05 b5 bc 7a 25 0a 3d 11 af 9b bc
       0.021116225 -0.022097582 0.033727147 -0.019004377
000240 22 91 8e 3a 91 6c 73 3c c2 79 d4 3c dd 63 14 3d
       0.0010876993 0.014857427 0.025936965 0.03622805
000250 54 2c 23 3d da 94 ac bc 36 0e 86 3c f8 66 f8 bb
       0.039837196 -0.021067072 0.016364198 -0.007580634
000260 6b 35 92 3b a5 85 92 bc df 78 2a 3d 0a 88 8e bc
       0.0044619343 -0.017885992 0.041619178 -0.017398853
000270 d2 53 e6 3c 8f 7d ad 3c f3 d2 a3 3c 6f 9d 68 bc
       0.02811614 0.021178035 0.01999805 -0.014197691
000280 61 92 20 3d fc 92 70 3c 65 1b 3a 3c 6a b3 c8 bc
       0.039202098 0.014683481 0.01135907 -0.024499614
000290 03 10 b5 3c 9a 7c f1 3a de e8 15 bc f4 30 1b 3d
       0.022102362 0.0018423975 -0.009149758 0.037888482
0002a0 8d 9d 78 3c 54 96 4d bc 49 01 32 bc 56 72 b6 3b
       0.015174282 -0.012548048 -0.010864564 0.005567829
0002b0 3a 82 df 3c a3 81 db ba 48 a7 52 bc ba 14 a0 bb
       0.027283777 -0.0016747009 -0.012857266 -0.0048852833
0002c0 25 f8 9f bc 6e 31 a7 3c 6d 75 0e 3d d6 79 d6 bc
       -0.019527504 0.020409312 0.034779955 -0.026181143
0002d0 5d 88 7b 3c d8 7c d6 3c ca fe 74 3c a0 69 7e bb
       0.015352336 0.026182577 0.014953325 -0.0038820282
0002e0 61 79 e3 3c d6 69 e1 3c 70 35 9b 3c f3 de 82 bb
       0.027767839 0.027516287 0.01894638 -0.003993863
0002f0 99 ea 69 bb e3 aa 29 3c 17 ed 52 39 e6 8d 6c bb
       -0.003569281 0.010355684 0.00020115483 -0.003609532
000300 fa 85 f3 3c 1f 43 1b 3d 87 ec 70 3b 0c a6 4d ba
       0.029726971 0.03790581 0.0036762075 -0.00078448723
000310 f7 64 fd 3b 08 71 a6 3b 65 19 81 3c 39 bf 8d 3c
       0.007732983 0.0050793923 0.01575918 0.017303096
000320 f2 09 d3 bc 08 c8 f6 bb 45 15 10 3d e6 28 4c 3c
       -0.025761578 -0.00753117 0.035176534 0.012460923
000330 4c d0 12 ba 72 8e 81 bc c3 14 9f bc 2e 3a 1e bd
       -0.00056004967 -0.015814994 -0.01941908 -0.038629703
000340 0c cf 95 bc a4 bd 75 3b 99 87 91 3c 2b af 5e 3c
       -0.018287204 0.0037497068 0.017764853 0.013591568
000350 a7 a8 06 bd 3b d7 b4 bc 09 30 d1 bb 91 d9 06 3d
       -0.032875683 -0.022075286 -0.0063839 0.03292233
000360 15 c0 29 3b 5c 17 0f bc 58 ff 8b 3c 79 76 05 bc
       0.0025901843 -0.008733597 0.01708953 -0.008145922
000370 3a 29 84 bc b1 5d 08 3d 30 e8 13 bc 67 5f 5b 38
       -0.01613294 0.033292476 -0.009027526 5.230252e-05
000380 d7 f8 e7 bc 87 e3 fe 3c 4d 8d 08 3d 08 70 9d 3c
       -0.028316898 0.031114353 0.03333788 0.01921846
000390 83 c5 9f bc 00 50 1a bd 70 63 1b bd f8 e9 a0 3c
       -0.01950336 -0.03767395 -0.037936628 0.019642815
0003a0 06 ea 98 3c 62 89 e3 3c 53 46 18 3c 0a a2 80 3a
       0.018666279 0.02777547 0.00929411 0.0009813916
0003b0 80 43 ca bb 6d fa 0f bd c8 06 0f bd 04 1c 12 bd
       -0.0061725974 -0.035150934 -0.034918576 -0.03567125
0003c0 ca 88 88 3c ee ad ab bc ac e2 21 bc 9a ea b3 bc
       0.016666789 -0.02095696 -0.009880703 -0.021962453
0003d0 24 f3 0a bc 72 07 df bc bc c4 ba bc 7d d2 82 3c
       -0.008480821 -0.02722523 -0.022798888 0.01596951
0003e0 0a 95 77 bb fa 2b ee 3c e6 1e 8b bb a1 8a 9b bc
       -0.0037778043 0.029073704 -0.0042456267 -0.018987002
0003f0 89 aa 6e 3a e9 7c 25 bc c3 e3 a0 bb 47 da e7 bc
       0.0009104391 -0.010100582 -0.004909964 -0.028302325

encoder.encoder.0.bias f4 [20]
000000 24 37 02 bc ee ae 8f 3b 84 0a 07 3d c7 4b 09 3d
       -0.007947717 0.004384867 0.032969013 0.033519533
000010 52 9b e7 bc da 92 26 3c aa 9f 1f 3d 06 1c 04 bd
       -0.028272305 0.010166848 0.038970627 -0.032253288
000020 c2 53 5d bc 8b c6 b8 3c aa 0e 99 bc 05 2e df bb
       -0.013508739 0.02255561 -0.01868375 -0.006810906
000030 61 74 2a bd 74 14 61 3c be d7 ca 3c a6 4c 09 3d
       -0.041614894 0.013737787 0.024761077 0.033520363
000040 85 07 6f bc aa 9d b1 3c bd 9c 2a 3b ff e1 1a bc
       -0.014589195 0.021681625 0.0026033365 -0.009453296

model.0.weight f4 [100, 20]
000000 0f 85 41 3d 69 09 aa bd 1f bb a2 3d 9c 94 8b be
       0.047246035 -0.08302576 0.07945847 -0.27261817
000010 86 f3 ae bd 9e 08 23 be 3d db c0 3d 8f 34 1d be
       -0.08542542 -0.15921256 0.094168164 -0.15352081
000020 65 3d 23 3e 2a fb ed 3d dd 30 06 3e d6 36 0f be
       0.15941389 0.11620171 0.13104577 -0.13985762
000030 7b e2 3d be 8b f1 0e bd ff 9b f7 bd d6 27 53 bd
       -0.18543427 -0.034898322 -0.12090301 -0.051551662
000040 d8 11 07 3e a7 2d 32 3e af 06 1b be 02 89 00 3e
       0.131904 0.17400227 -0.15139268 0.12552264
000050 6f 1c 1d be d0 0d 05 be 1e 48 28 3e ac 68 04 3e
       -0.15342878 -0.1299355 0.1643376 0.12930554
000060 8f c7 8a bd fc 1a 16 be 1f 81 5b 3d 32 09 63 3e
       -0.06776344 -0.14658731 0.053589936 0.22171476
000070 e5 de 94 3e ec 36 79 3e 4d b5 2b be 4c a2 11 3e
       0.29076305 0.24337357 -0.1676838 0.14222068
000080 22 18 22 3d 73 ae 39 be ff 8f a7 3d 69 9a 5e be
       0.039573796 -0.18132953 0.08181762 -0.2173859
000090 b7 8d 55 3d 93 bc eb bd c2 c5 49 be f5 53 7f 3d
       0.052137103 -0.11510577 -0.19704345 0.062335927
0000a0 7b 95 20 3e 0d 85 00 3e 72 8c 07 be f2 2e f8 3d
       0.15682022 0.12550755 -0.1323717 0.12118329
0000b0 0a 18 9e 3d eb da 18 be 88 3d 6c bd 78 7b 5b bd
       0.07719429 -0.1492726 -0.05767587 -0.053584546
0000c0 00 1b 3a be 37 15 57 be d3 7c 1b be 5c 03 4a 3e
       -0.18174362 -0.21004187 -0.15184335 0.19727844
0000d0 f7 ee 85 bd 20 49 7d 3c 44 23 3e be 58 f5 04 bd
       -0.065397196 0.015459329 -0.1856814 -0.03246054
0000e0 e1 b8 a0 3d ce 9e 2c bc 5a 20 c1 bc 2e 2f 13 bc
       0.07847763 -0.010535909 -0.023574997 -0.0089834165
0000f0 46 a7 22 3e bd 4d 21 be 99 0b 2b be d8 ee 85 be
       0.15884122 -0.15752311 -0.16703643 -0.26158786
000100 9f 44 cb 3d 4b cd f2 bd 73 ae 81 bd f0 64 b1 bc
       0.09925198 -0.11855563 -0.06332102 -0.021654576
000110 86 92 5a 3e 5a 46 8a bd 8a 46 33 3d 8b a2 80 bd
       0.21344957 -0.067517 0.043768443 -0.062810026
000120 59 28 05 3e 53 45 dc bd 65 37 48 3e 10 46 87 3e
       0.13003673 -0.1075541 0.19552381 0.2642064
000130 af 23 9a be c3 4d a8 bc a9 f6 9b 3a d6 b7 47 be
       -0.3010535 -0.020544892 0.0011899072 -0.19503722
000140 53 07 a0 3b 7b 4e 96 bd f5 9c 76 3e e7 8f 09 3d
       0.0048836856 -0.07339188 0.24083312 0.0335845
000150 ab 31 02 be b5 b2 ef bd e3 da 84 be 43 94 06 be
       -0.1271426 -0.117040075 -0.25948247 -0.13142495
000160 e5 50 0f bd 12 b2 be 3d 67 14 b9 bd 03 aa 07 3c
       -0.034989256 0.09311308 -0.090370946 0.00828028
000170 3f 0e d9 3d 2c 25 b5 3c c2 27 4d 3d 89 d5 25 be
       0.1059842 0.022112451 0.050086744 -0.16194738
000180 55 a2 82 3e 25 ee 02 be c2 a5 fe 3d d4 04 46 3d
       0.25514475 -0.12786157 0.124339595 0.04834445
000190 cb ee bf 3d 6a a8 3d be 23 f9 d8 3d 66 86 8f be
       0.09371718 -0.18521276 0.10594394 -0.28032225
0001a0 71 5e 38 3e b9 35 a8 bd 32 f2 c3 3c 8e f1 aa 3c
       0.18004777 -0.08213372 0.023919199 0.020867135
0001b0 fd e8 87 bd 54 a8 f0 bc 80 a7 53 3e 58 41 db bd
       -0.06636236 -0.02937714 0.20669365 -0.10705823
0001c0 ce bc 84 bd 17 af 1b 3e 27 07 5b 3e e2 6d f0 3d
       -0.06481324 0.1520351 0.21389447 0.117397085
0001d0 dd 53 96 be a8 38 18 3c c0 1d 7c be 89 80 03 be
       -0.29360858 0.009290852 -0.24620724 -0.12842001
0001e0 7d 45 03 bd f1 16 ad bd 17 13 c2 3d 2f 1f 07 3c
       -0.03204869 -0.08451641 0.09476297 0.008247181
0001f0 bd 9e 22 3d 74 e6 73 3d f5 e5 78 3d c8 55 5a be
       0.039702166 0.05954595 0.06076618 -0.21321785
000200 8d 36 1d 3d a7 f3 3b 3e c9 92 9a 3d c0 38 1e 3e
       0.0383821 0.18354665 0.07547528 0.15451336
000210 06 08 02 be ee 85 5f bd 57 b9 53 be 6a c6 4d be
       -0.12698373 -0.054571085 -0.2067617 -0.2009522
000220 3f 05 2e be cd 67 f8 3d 9b a2 00 be 51 81 aa 3d
       -0.16994189 0.121291734 -0.12562029 0.083254464
000230 1f 04 1a 3e e7 8e a3 3d 0e 8b 67 bd 99 cd 1c 3e
       0.15040635 0.07986241 -0.056529097 0.15312804
000240 73 02 99 3d 66 1e 37 3d f0 92 3b bd d8 5a 3e 3e
       0.0747117 0.044706725 -0.045794427 0.18589342
000250 42 56 23 3e 4f ff b7 bd ec e8 c6 3d 30 bb 1e be
       0.15950873 -0.08984243 0.09712395 -0.15501094
000260 e1 d5 33 bc c0 53 41 be 08 ed 29 be 8f 55 78 3e
       -0.010976286 -0.18879604 -0.16594326 0.24251388
000270 e5 e1 9f bc 56 57 d3 bd de 2b 1c be 61 7d 11 be
       -0.019516895 -0.103193924 -0.15251109 -0.14207985
000280 19 de 5b bd af d0 1b bd 6e b2 5c 3e 8f 17 58 3e
       -0.053678606 -0.038040813 0.2155244 0.21102737
000290 c2 31 eb 3d 21 e6 f3 bd ca c8 21 be 56 eb ac 3c
       0.114841 -0.11909128 -0.15799251 0.02110831
0002a0 86 4e 03 be f9 32 8a 3e 17 dc 0d be e7 c9 4d 3e
       -0.12822923 0.26992014 -0.13853489 0.20096551
0002b0 09 29 85 bb 8b 53 49 3e 6d 3a 1d 3e 97 4d c2 bc
       -0.0040637297 0.19660775 0.15354319 -0.023718638
0002c0 73 1b a6 3e 41 cc c8 3d bf 33 1a 3e b4 62 b0 3c
       0.32442817 0.09804583 0.15058802 0.02153144
0002d0 03 e2 51 be d6 5c 0c be c7 4e 26 be b2 52 36 3e
       -0.20496373 -0.13707289 -0.16240989 0.17804983
0002e0 61 f5 d8 3d 98 50 8d 3d 4f 44 6f 3e 53 38 27 be
       0.10593677 0.06900138 0.23365901 -0.1633008
0002f0 1c 7a e4 3d 29 1a d7 3d 47 6a 48 be fc 08 57 be
       0.11156103 0.105030365 -0.19571792 -0.20999521
000300 5e 80 58 3e 24 21 3a 3e 83 9d da 3d 56 81 dc bd
       0.21142718 0.18176705 0.10674574 -0.10766856
000310 39 2c f6 3d df 28 7e 3e c6 e1 d7 bd c2 8f 0e 3d
       0.120201536 0.24820279 -0.1054111 0.034805067
000320 bd 12 d1 bd f1 16 2d 3e 50 ba 3d be b9 6a fd bd
       -0.10208652 0.16903283 -0.18528104 -0.12373871
000330 b1 ab 82 bd 18 cd 8d ba 28 74 66 3d c1 5f 2d 3e
       -0.06380404 -0.0010818569 0.05626312 0.16931058
000340 f0 b4 4f 3e 6e 38 08 bd ed a6 57 3d 72 f2 3b 3e
       0.20283866 -0.03325694 0.052649427 0.18354204
000350 e3 0a 7f bd 3a 35 d9 bd 44 59 23 3e fd 38 74 3e
       -0.06226624 -0.10605855 0.15952021 0.23849864
000360 15 9f bc bd 85 fd 2a 3d 23 47 09 3e dc aa aa bd
       -0.0921003 0.04174568 0.13406043 -0.0833337
000370 46 7c 61 3e 99 c6 27 be bf 9f ea 3a 9e e7 70 3e
       0.22020063 -0.16384353 0.0017900391 0.23525855
000380 7e 6e 55 be 37 6a 85 bd 0b b3 5d 3e 84 67 2e 3e
       -0.2084293 -0.065143995 0.2165033 0.17031676
000390 88 e0 66 be d8 85 80 3e 40 12 3e 3e 25 b5 a7 3d
       -0.2254659 0.25102115 0.1856165 0.081888475
0003a0 ea e3 7d bd ab f7 0a be 1d 6a 78 bd e2 dd aa 3d
       -0.061984934 -0.1357104 -0.060648073 0.08343102
0003b0 22 f0 1e 3e d9 a5 ec 3d f6 34 c9 bd 15 28 5e 3e
       0.15521291 0.115550704 -0.098245546 0.21694978
0003c0 13 a1 0b 3d 5a 40 3d 3d 0d cf 2d be 15 5c 62 bd
       0.03408916 0.04620395 -0.16973515 -0.055263598
0003d0 c2 b8 34 bd 37 0f 18 3e e7 ba 7f 3e 1d 52 14 be
       -0.04412151 0.14849554 0.24973641 -0.14484449
0003e0 d7 f2 0a be 83 bd 80 bd ad 62 80 bd 8c e3 35 be
       -0.13569199 -0.062861465 -0.06268821 -0.17762583
0003f0 f7 62 5b 3e df 4c 10 be 85 4a 7f 3e 86 e2 2b 3e
       0.21424471 -0.14091824 0.2493077 0.1678563

model.0.bias f4 [100]
000000 30 8d 00 3d 90 42 47 3d c7 67 57 bd 57 b0 00 be
       0.031384647 0.048647463 -0.052589204 -0.12567268
000010 2d 9a 39 bc ba a0 65 3e ad f8 25 3d b6 f0 8f 3d
       -0.011328262 0.22424594 0.04052036 0.07028334
000020 e4 4e 9b bd a9 66 43 3e cb 36 0f 3e 7e eb 1c 3d
       -0.075834066 0.1908213 0.13985746 0.03831052
000030 8f 72 58 3e bc 45 be 3c 29 05 bd bb fc 53 64 3d
       0.2113745 0.023226611 -0.0057684374 0.055744156
000040 a5 f9 52 be 73 07 2c 3e 70 49 ec bd 8d 64 d7 bd
       -0.20603044 0.16799717 -0.115374446 -0.105172254
000050 22 39 9d bc a3 ad 27 be bf 5b 20 be 68 ec 49 3e
       -0.019192282 -0.16374831 -0.15659998 0.19719088
000060 f7 e7 28 bd 75 fe 0a 3e e8 4e 2b 3d fd 90 63 3e
       -0.041236844 0.1357363 0.041823298 0.22223277
000070 44 52 e6 bd 65 74 ea bd b4 6b 58 3e 21 7c 28 be
       -0.1124616 -0.11447982 0.21134835 -0.16453601
000080 e5 8c 67 be 14 f7 02 bd 3c a3 f6 3d 45 da c1 3d
       -0.22612341 -0.031973913 0.12042853 0.0946546
000090 15 be c4 bd e1 0c 37 be cf fa fd 3d fa 22 1c be
       -0.09606568 -0.17876007 0.124013536 -0.15247717
0000a0 1b 6d 40 3e 70 4e 4e bd 36 ca 97 bd 69 ee 1c bc
       0.1879162 -0.050367773 -0.074116156 -0.009578326
0000b0 7e 23 50 3e f4 b5 09 be 13 b6 0d be 46 cd c4 3d
       0.20326039 -0.13448316 -0.13838987 0.09609465
0000c0 60 3a c8 3d d3 b1 84 38 2d c6 15 3e a8 86 39 bd
       0.09776759 6.327373e-05 0.1462638 -0.045294434
0000d0 54 01 c0 bd b2 5e 01 be c9 0b d1 bd 0b ca 0c be
       -0.09375253 -0.1263378 -0.10207326 -0.13748948
0000e0 9e b5 65 3d 2a 09 99 bd c7 c4 55 3e d1 5d c7 bd
       0.056081407 -0.07472451 0.20875846 -0.09734691
0000f0 fa 8d ee 3d 53 42 42 3e 22 36 38 bd 3c 12 ee bd
       0.11648174 0.18970613 -0.0449735 -0.11624572
000100 a8 86 04 3e ab f4 69 be 35 11 3c 3e a8 84 37 3e
       0.12941992 -0.2284724 0.18365939 0.17921698
000110 93 c0 91 bc fa c9 15 be 16 d4 17 3d 6b 41 1f 3e
       -0.017792022 -0.14627829 0.037067495 0.15552299
000120 e4 87 61 3d de a2 a8 3d 01 ee 04 3e c0 81 08 3e
       0.055061236 0.082341895 0.12981416 0.13330746
000130 cf 6e ae 3d 65 1c 01 be b1 58 57 3d f9 d1 bb bd
       0.08517229 -0.12608488 0.052574817 -0.091709085
000140 85 14 de 3d e2 7c eb bd 5d 95 4f 3e 1b 62 a9 3d
       0.108437575 -0.11498429 0.20271821 0.08270665
000150 f1 89 4a be ac 49 95 bd b8 ae 09 bd b7 de 8d bd
       -0.19779183 -0.072894424 -0.03361389 -0.06927245
000160 3b 37 83 3c 74 a9 00 be e0 b2 3e 3e a1 5f 04 3e
       0.016017547 -0.12564641 0.18622923 0.12927105
000170 44 b6 78 bc 7f 5c d3 bd b6 65 32 be 40 7c 27 be
       -0.015180174 -0.103203766 -0.17421612 -0.16355991
000180 dd 08 f8 bd c1 52 87 3e 23 0e ac bc 52 a0 02 be
       -0.121110655 0.26430324 -0.021002835 -0.1275647

model.2.weight f4 [10, 100]
000000 8a e7 81 bd 26 0f 08 3d c6 5b f8 3c a6 62 85 bc
       -0.06342991 0.03321757 0.030317198 -0.01628239
000010 43 23 51 3d 9d 69 06 be 86 a8 ef bc 11 d3 98 3c
       0.05105902 -0.13126226 -0.029255163 0.018655332
000020 d5 30 cf bd ad f7 3d be 00 f5 03 bd 43 88 94 bd
       -0.10116736 -0.18551512 -0.032216072 -0.07252552
000030 17 d6 3b bd 5f 55 b3 3d b2 f4 1a 3e 72 bc 2c bd
       -0.04585847 0.087565176 0.15132406 -0.042171903
000040 d9 db 14 3e 0a 97 03 3e f7 17 c7 bc f0 80 f5 bc
       0.1453699 0.12850586 -0.02430342 -0.029968709
000050 23 ca 7c 3c 2b 4c 81 bd 92 d9 8e 3d 03 d6 31 be
       0.0154290525 -0.06313356 0.06975092 -0.17366795
000060 a5 52 8d bc 10 2b 2d be 7f 3b 03 be 8d fe 42 3e
       -0.017251322 -0.16910958 -0.12815665 0.19042416
000070 8e 42 91 3c c3 3c 00 3d e3 08 2b bd fd c6 96 3d
       0.017731931 0.031307947 -0.041756522 0.07362173
000080 a1 8c 74 3c 82 ab 32 3d 33 93 54 bd ba 4e 9d bd
       0.014926107 0.043620594 -0.051898193 -0.076810315
000090 2f 30 dc 3d 27 28 c7 3c 2f 05 42 be f3 ae 49 bd
       0.10751378 0.024311138 -0.1894729 -0.04923911
0000a0 93 8e 0f bd b5 25 3f 3d 39 0a 96 3d 92 c1 27 bc
       -0.03504808 0.04666682 0.073261686 -0.010239022
0000b0 31 4d 99 3c da bf 88 bd c8 f1 30 3e 42 64 28 3c
       0.018713566 -0.06677218 0.17279732 0.01027781
0000c0 05 86 a6 bd cc 2b 01 3e 3a 65 14 be 84 20 29 3c
       -0.08131031 0.12614363 -0.1449174 0.010322694
0000d0 57 2d be 3d 1f 2e 57 bd ac a2 10 be 18 c8 96 3d
       0.09285992 -0.05253422 -0.14124554 0.073623836
0000e0 0c c7 71 3c d3 71 3f 3b 17 f1 dc 3d c6 c6 02 bd
       0.014756929 0.0029212132 0.10788172 -0.031927846
0000f0 9f 61 d9 3d 7f c1 01 3e 69 01 7e bd 14 7f 06 be
       0.10614323 0.12671469 -0.062013064 -0.13134414
000100 f8 b7 7f 3d e6 2f 7b bc 68 42 15 3e f2 77 67 3d
       0.062431306 -0.015331244 0.14576113 0.056510873
000110 ad f4 d1 bd 6b cd a6 3d 7c c6 5f 3d f7 23 30 be
       -0.10251746 0.08144649 0.05463265 -0.1720122
000120 77 2e c1 3d 92 ad 25 be 19 53 16 3e 39 11 f6 3c
       0.094326906 -0.16179493 0.14680137 0.03003751
000130 c8 0e 69 3d 60 00 67 3d b5 09 21 be 14 10 7e 3d
       0.056898862 0.056396842 -0.15726359 0.062027052
000140 ed 81 11 bd d2 87 9c 3d ac af a3 3d 2b a3 de bc
       -0.035524298 0.07643093 0.07992491 -0.027177414
000150 90 1b 20 be a0 01 d4 bd 55 13 a0 3d dd 7f 72 bd
       -0.15635514 -0.103518724 0.07816187 -0.05920397
000160 20 a4 c1 3d 78 2b a1 bd 8f 66 2b be a3 12 2a be
       0.094551325 -0.07869619 -0.16738342 -0.16608672
000170 73 75 bc bd 04 f3 40 bd 1c 14 48 bd 36 b9 b1 3d
       -0.09202089 -0.047106758 -0.048847303 0.08677904
000180 63 85 64 3d ea ea b1 3d db ac 00 3d 33 e0 82 bd
       0.05579127 0.086873844 0.031414848 -0.06390419
000190 69 cf e3 bc b6 37 60 be 54 79 b3 3d 1b f2 aa bd
       -0.027808862 -0.21896252 0.08763376 -0.08346959
0001a0 80 11 ea 3c 94 3d 4f be 24 81 d0 3c 76 3f 24 be
       0.028572798 -0.20238334 0.025452204 -0.16039833
0001b0 b5 43 c8 3d 0c f8 c8 bd 80 c4 56 3c 46 98 6d 3d
       0.09778539 -0.09812936 0.013108373 0.058006547
0001c0 87 84 3a be ba 1d 8a 3d 1f 33 ae 3d ad e4 2b 3d
       -0.18214618 0.06743951 0.08505844 0.04196613
0001d0 56 e6 1e 3e ac 7d fe bd 73 29 85 bd da 0f 33 3d
       0.15517554 -0.12426314 -0.065020464 0.04371629
0001e0 69 9b 53 3d f2 3d b2 bd 75 fb b4 3d 85 00 ba bc
       0.051661883 -0.087032214 0.08837024 -0.022705326
0001f0 80 1e 8c bd e9 f4 16 bd a4 83 9e 3d 6c f9 02 be
       -0.06841755 -0.03685466 0.07739952 -0.1279046
000200 9c aa 93 bc cd ae 40 bc 08 e2 c7 39 5c 7d 17 3e
       -0.018025689 -0.011760426 0.00038124644 0.14793915
000210 1d fc 44 3c c0 d3 2d be 63 d8 0a bc 00 c9 8d 3d
       0.012022999 -0.16975307 -0.008474442 0.06923103
000220 8e e5 86 bd 0d c7 82 3d 5d 2e 2d be e7 47 e4 3c
       -0.06586753 0.06385622 -0.16912217 0.027866317
000230 de 72 92 3d 1d fc 04 bb ba f6 09 3e 38 1c 69 3d
       0.071508154 -0.0020291873 0.13473025 0.056911677
000240 e1 06 01 be 22 c5 92 3d a0 30 2d bd 74 f9 b6 3d
       -0.1260028 0.07166506 -0.0422827 0.08934298
000250 fe ad 03 3e 55 f3 10 be 31 9b a9 3d 56 26 9b 3d
       0.12859342 -0.14155324 0.082815535 0.075756714
000260 62 af 8b bd 2f b4 a7 bd 61 7d 85 3d 0f d9 a0 3d
       -0.06820561 -0.08188664 0.06518055 0.07853901
000270 01 81 89 3d 7c ef 8b bd c0 e7 48 bd b6 23 05 be
       0.06714059 -0.068327874 -0.04904914 -0.13001904
000280 65 c1 d0 bd eb 4a be 3d ee 7e a5 bd dc 84 d5 bd
       -0.10193137 0.09291633 -0.080808505 -0.104257315
000290 55 3f c9 3c 8d fa 9c 3c 48 b7 35 3d 8b 55 17 3d
       0.024566332 0.01916244 0.044364244 0.036946815
0002a0 1c 43 0b 3e 99 18 10 bb 54 df eb bd 45 23 a0 3d
       0.13599819 -0.0021987318 -0.11517206 0.07819227
0002b0 98 e0 f5 bd 57 ae 1f 3e 97 77 25 be e9 1a 81 bd
       -0.120057285 0.15593849 -0.16158901 -0.06303961
0002c0 7a f7 59 bd 1e af 4c bd fb 40 a5 bc 66 84 1e 3d
       -0.053214528 -0.049971692 -0.020172587 0.038700484
0002d0 55 ea 89 3c cd d1 58 bc 25 6c c6 bd 8b 6b d3 bd
       0.016835371 -0.013233614 -0.09688596 -0.103232466
0002e0 68 40 65 bd dd 11 42 be aa 3a cc bd 30 ac bd 3d
       -0.055969626 -0.18952127 -0.09972127 0.09261358
0002f0 00 76 05 bd 0d 1e 21 3d cb ab 0b 3e 40 df 42 3d
       -0.032583237 0.0393353 0.13639753 0.04757619
000300 be e7 1f bd d3 80 e1 bb a5 c0 cf bd 63 29 c7 bb
       -0.039039366 -0.006881812 -0.10144166 -0.0060779317
000310 18 49 c0 3d d5 e5 24 be 29 ad 99 3c cf a9 9d bd
       0.093889415 -0.16103299 0.018759327 -0.07698404
000320 b5 3d 09 bd 28 f0 4e 3d f3 4f f7 bb d3 ff 0c be
       -0.033506114 0.050522 -0.0075473725 -0.13769464
000330 2d ba e2 3d 80 71 b2 3d 47 98 0b 3d a7 af 1d be
       0.110706665 0.08713055 0.03408077 -0.15399037
000340 b5 a7 28 bc 8f bd 4c be 68 65 d7 bd 08 1d 94 bd
       -0.010293891 -0.19994186 -0.105173886 -0.072321
000350 6e b5 09 be ff e9 bc 3d c7 6e 38 be 99 3b 28 3c
       -0.13448116 0.09224319 -0.18011008 0.010268115
000360 d3 11 15 3d c7 48 11 be 9b 4d 85 bd f4 86 e5 3d
       0.03639395 -0.14187919 -0.06508943 0.11207381
000370 47 89 cf bc 81 11 31 bd 9b 13 9f 3d d5 93 af bd
       -0.025334014 -0.043229584 0.07767411 -0.085731186
000380 e7 0d 12 3d 38 24 22 3e c8 d0 5b bd 4b 7f db bd
       0.03565779 0.15834129 -0.053665906 -0.107176386
000390 70 8a 87 3d 1f 80 b0 bd 2b 73 70 bd 7e 8e 00 be
       0.06618202 -0.08618187 -0.058703583 -0.12554356
0003a0 5d e3 ed 3b 30 8c b2 bc 66 94 93 bd 9c c2 69 bd
       0.00725977 -0.021795362 -0.07206039 -0.05707036
0003b0 af 96 50 3e 68 1a 43 bd 26 c1 f5 3d cb ab b9 bd
       0.20369981 -0.047632605 0.11999731 -0.0906597
0003c0 c7 02 e9 3b ad 40 08 bd bb 18 12 be 8f b4 26 3e
       0.007110927 -0.033264805 -0.14267246 0.16279815
0003d0 22 ef 50 bd ad 81 85 3c 1d 1d 06 be 19 52 b3 3d
       -0.051009305 0.016297186 -0.13097043 0.08755893
0003e0 88 b2 ce 39 66 e7 41 3d 34 4a 13 3e c3 96 90 3d
       0.00039424398 0.04733982 0.14383775 0.070600055
0003f0 b3 1f ff bb 8d 4e 1f 3e 57 7a df 3b 75 01 20 bd
       -0.0077857613 0.15557308 0.006820004 -0.03906389

model.2.bias f4 [10]
000000 fc 74 73 3d 66 9c a2 bd b7 9e 0e bd 3a a0 29 bb
       0.059437737 -0.07939987 -0.03481933 -0.0025882856
000010 cc df 0e bd b2 a0 58 3d fc bc ae bd 0c 0f a3 3d
       -0.034881398 0.052887626 -0.0853214 0.07961854
000020 2c fb 72 3d 80 fb 3a bd
       0.059321567 -0.045650005

exp_avg f4 [20, 784]
000000 40 3d 4b ab 40 3d 4b ab 40 3d 4b ab 40 3d 4b ab
       -7.220509e-13 -7.220509e-13 -7.220509e-13 -7.220509e-13
000010 40 3d 4b ab 40 3d 4b ab 40 3d 4b ab 40 3d 4b ab
       -7.220509e-13 -7.220509e-13 -7.220509e-13 -7.220509e-13
000020 40 3d 4b ab 40 3d 4b ab 40 3d 4b ab 40 3d 4b ab
       -7.220509e-13 -7.220509e-13 -7.220509e-13 -7.220509e-13
000030 40 3d 4b ab 40 3d 4b ab 40 3d 4b ab 40 3d 4b ab
       -7.220509e-13 -7.220509e-13 -7.220509e-13 -7.220509e-13
000040 40 3d 4b ab 40 3d 4b ab 40 3d 4b ab 40 3d 4b ab
       -7.220509e-13 -7.220509e-13 -7.220509e-13 -7.220509e-13
000050 40 3d 4b ab 40 3d 4b ab 40 3d 4b ab 40 3d 4b ab
       -7.220509e-13 -7.220509e-13 -7.220509e-13 -7.220509e-13
000060 40 3d 4b ab 40 3d 4b ab 40 3d 4b ab 40 3d 4b ab
       -7.220509e-13 -7.220509e-13 -7.220509e-13 -7.220509e-13
000070 40 3d 4b ab 40 3d 4b ab 40 3d 4b ab 40 3d 4b ab
       -7.220509e-13 -7.220509e-13 -7.220509e-13 -7.220509e-13
000080 40 3d 4b ab 40 3d 4b ab 40 3d 4b ab 40 3d 4b ab
       -7.220509e-13 -7.220509e-13 -7.220509e-13 -7.220509e-13
000090 40 3d 4b ab 40 3d 4b ab 40 3d 4b ab 40 3d 4b ab
       -7.220509e-13 -7.220509e-13 -7.220509e-13 -7.220509e-13
0000a0 40 3d 4b ab 40 3d 4b ab 40 3d 4b ab 40 3d 4b ab
       -7.220509e-13 -7.220509e-13 -7.220509e-13 -7.220509e-13
0000b0 40 3d 4b ab 40 3d 4b ab 40 3d 4b ab 40 3d 4b ab
       -7.220509e-13 -7.220509e-13 -7.220509e-13 -7.220509e-13
0000c0 40 3d 4b ab 40 3d 4b ab 40 3d 4b ab 40 3d 4b ab
       -7.220509e-13 -7.220509e-13 -7.220509e-13 -7.220509e-13
0000d0 40 3d 4b ab 40 3d 4b ab 40 3d 4b ab 40 3d 4b ab
       -7.220509e-13 -7.220509e-13 -7.220509e-13 -7.220509e-13
0000e0 40 3d 4b ab 40 3d 4b ab 40 3d 4b ab 40 3d 4b ab
       -7.220509e-13 -7.220509e-13 -7.220509e-13 -7.220509e-13
0000f0 40 3d 4b ab 40 3d 4b ab 40 3d 4b ab 40 3d 4b ab
       -7.220509e-13 -7.220509e-13 -7.220509e-13 -7.220509e-13
000100 40 3d 4b ab 40 3d 4b ab 40 3d 4b ab 40 3d 4b ab
       -7.220509e-13 -7.220509e-13 -7.220509e-13 -7.220509e-13
000110 40 3d 4b ab 40 3d 4b ab 40 3d 4b ab 40 3d 4b ab
       -7.220509e-13 -7.220509e-13 -7.220509e-13 -7.220509e-13
000120 40 3d 4b ab 40 3d 4b ab fe 37 39 ab 66 8a e1 aa
       -7.220509e-13 -7.220509e-13 -6.580291e-13 -4.0064062e-13
000130 e6 7e cf aa 18 12 24 ab 40 3d 4b ab 40 3d 4b ab
       -3.685864e-13 -5.8289614e-13 -7.220509e-13 -7.220509e-13
000140 40 3d 4b ab 40 3d 4b ab 40 3d 4b ab 40 3d 4b ab
       -7.220509e-13 -7.220509e-13 -7.220509e-13 -7.220509e-13
000150 40 3d 4b ab 40 3d 4b ab 40 3d 4b ab 40 3d 4b ab
       -7.220509e-13 -7.220509e-13 -7.220509e-13 -7.220509e-13
000160 40 3d 4b ab 40 3d 4b ab 40 3d 4b ab 40 3d 4b ab
       -7.220509e-13 -7.220509e-13 -7.220509e-13 -7.220509e-13
000170 40 3d 4b ab 40 3d 4b ab 3d aa 4d ab f7 fd 54 ab
       -7.220509e-13 -7.220509e-13 -7.3066883e-13 -7.5669977e-13
000180 de fc 55 ab 2c 22 06 ab 81 24 a6 aa 87 5e 9c aa
       -7.6023725e-13 -4.7653786e-13 -2.9512853e-13 -2.7776758e-13
000190 a4 25 85 aa 58 49 4e aa 9e f9 b6 aa e7 4c d5 aa
       -2.3651664e-13 -1.8321922e-13 -3.25029e-13 -3.7889762e-13
0001a0 14 ef ce aa 6e 1a 3e ab 40 3d 4b ab 40 3d 4b ab
       -3.6758845e-13 -6.753824e-13 -7.220509e-13 -7.220509e-13
0001b0 40 3d 4b ab 40 3d 4b ab 40 3d 4b ab 40 3d 4b ab
       -7.220509e-13 -7.220509e-13 -7.220509e-13 -7.220509e-13
0001c0 40 3d 4b ab 40 3d 4b ab 40 3d 4b ab 40 3d 4b ab
       -7.220509e-13 -7.220509e-13 -7.220509e-13 -7.220509e-13
0001d0 40 3d 4b ab 1e 87 50 ab 3e 16 57 ab d9 5e 53 ab
       -7.220509e-13 -7.4083957e-13 -7.641421e-13 -7.5093886e-13
0001e0 e6 22 44 ab 6f 36 41 ab fc f2 46 ab 13 a9 46 ab
       -6.968162e-13 -6.8642916e-13 -7.068094e-13 -7.057837e-13
0001f0 86 b9 ea aa 5b 12 e9 aa 1b af 35 ab f1 7e a5 aa
       -4.1695483e-13 -4.140185e-13 -6.4547125e-13 -2.939797e-13
000200 20 af d6 a9 5f 58 ee 29 df f4 c2 aa 7d 02 1b ab
       -9.5338884e-14 1.0584653e-13 -3.4631236e-13 -5.5070515e-13
000210 95 da 32 ab f2 5e 3b ab 26 ec 49 ab 40 3d 4b ab
       -6.3541647e-13 -6.656751e-13 -7.1737267e-13 -7.220509e-13
000220 40 3d 4b ab 40 3d 4b ab 40 3d 4b ab 40 3d 4b ab
       -7.220509e-13 -7.220509e-13 -7.220509e-13 -7.220509e-13
000230 40 3d 4b ab 40 3d 4b ab 40 3d 4b ab 40 3d 4b ab
       -7.220509e-13 -7.220509e-13 -7.220509e-13 -7.220509e-13
000240 1e 87 50 ab 4c a8 6a ab 58 dc 82 ab f4 47 6e ab
       -7.4083957e-13 -8.336706e-13 -9.298213e-13 -8.465444e-13
000250 ef 76 60 ab d6 e5 55 ab d4 44 66 ab d0 09 72 ab
       -7.974584e-13 -7.5991763e-13 -8.1807933e-13 -8.598929e-13
000260 48 f2 98 ab 59 e1 f9 ab b3 f2 05 ac b1 6c e8 ab
       -1.0867496e-12 -1.7755061e-12 -1.9035162e-12 -1.6514759e-12
000270 5d 8e f5 ab ed 01 b7 ab 22 af b4 ab 5b c4 e3 aa
       -1.7447811e-12 -1.3003467e-12 -1.2838378e-12 -4.045955e-13
000280 63 cc 2a ab bc 9a 1b ab 97 8a 25 ab 62 ba 35 ab
       -6.0679776e-13 -5.52818e-13 -5.881211e-13 -6.4562776e-13
000290 37 c9 40 ab 74 eb 49 ab 40 3d 4b ab 40 3d 4b ab
       -6.8491344e-13 -7.17363e-13 -7.220509e-13 -7.220509e-13
0002a0 40 3d 4b ab 40 3d 4b ab 40 3d 4b ab 1e 17 53 ab
       -7.220509e-13 -7.220509e-13 -7.220509e-13 -7.499434e-13
0002b0 e2 58 5e ab 30 22 79 ab 28 42 88 ab 8e 0b 5f ab
       -7.8993593e-13 -8.8510015e-13 -9.681743e-13 -7.924155e-13
0002c0 f8 42 47 ab 92 e8 95 ab af df a5 ab 3a 1a a2 ab
       -7.079194e-13 -1.0651638e-12 -1.178604e-12 -1.1518072e-12
0002d0 90 fd 90 ab 8d 49 a0 ab 1a 58 d2 ab c3 23 12 ac
       -1.0302193e-12 -1.1389098e-12 -1.4945851e-12 -2.07677e-12
0002e0 ac 98 1b ac e9 08 03 ac 88 cb 6b ab 02 05 30 aa
       -2.2111575e-12 -1.8621166e-12 -8.377123e-13 -1.5633678e-13
0002f0 5b a1 e5 aa fc c8 12 ab 3c a6 11 ab 29 61 3a ab
       -4.0790534e-13 -5.214854e-13 -5.1745045e-13 -6.621531e-13
000300 44 80 30 ab a1 5f 4b ab 40 3d 4b ab 40 3d 4b ab
       -6.2705765e-13 -7.22528e-13 -7.220509e-13 -7.220509e-13
000310 40 3d 4b ab 40 3d 4b ab d8 f6 46 ab bf 39 56 ab
       -7.220509e-13 -7.220509e-13 -7.0686295e-13 -7.610821e-13
000320 38 61 13 ab 73 d4 ec aa e1 ab b8 aa 13 56 27 2a
       -5.235981e-13 -4.2069438e-13 -3.280423e-13 1.4862443e-13
000330 a3 98 36 aa e7 31 04 ab e9 bf eb a8 b5 3e 12 2b
       -1.6217804e-13 -4.6965074e-13 -2.6173469e-14 5.1956643e-13
000340 ea 54 7b 2b c4 cb fd 2a 8a ee 40 2b e8 2f af 2a
       8.9290955e-13 4.508322e-13 6.854314e-13 3.1119486e-13
000350 98 d7 91 2a df bb 86 2a ca b9 dc 2a 4b fc 1d 2b
       2.5906772e-13 2.3933543e-13 3.9208768e-13 5.612773e-13
000360 91 33 c6 2a dc 9b 06 2a d7 56 3f a9 4f 77 f8 aa
       3.5207647e-13 1.1955665e-13 -4.248584e-14 -4.4136437e-13
000370 98 6d 36 ab 73 ce 4c ab 40 3d 4b ab 40 3d 4b ab
       -6.481148e-13 -7.2761865e-13 -7.220509e-13 -7.220509e-13
000380 40 3d 4b ab 40 3d 4b ab 5a 84 11 ab 46 7e 0e ab
       -7.220509e-13 -7.220509e-13 -5.1698023e-13 -5.0623774e-13
000390 0f 5a 71 aa 03 a3 59 2a 41 c0 05 2b 42 31 d4 2a
       -2.1436345e-13 1.9330028e-13 4.75179e-13 3.7692944e-13
0003a0 ae 10 84 aa 36 fd bd 29 03 73 ab 2b 04 3c f8 2b
       -2.3459484e-13 8.437211e-14 1.2182203e-12 1.7638118e-12
0003b0 3f 12 d7 2b 93 f3 d0 2b c3 80 be 2b 2e f2 f9 29
       1.5281733e-12 1.4846894e-12 1.353605e-12 1.1099833e-13
0003c0 de 9a 26 aa 69 f1 cc 2a fd 4a 4f 2b 91 1f f0 2a
       -1.4797492e-13 3.6405191e-13 7.364524e-13 4.2654468e-13
0003d0 f7 a3 c0 2a b4 15 c1 2a da 28 20 2a 01 b1 95 aa
       3.4219825e-13 3.4298747e-13 1.4225028e-13 -2.6590538e-13
0003e0 65 94 2c ab 49 a8 39 ab 40 3d 4b ab 40 3d 4b ab
       -6.1312614e-13 -6.5958746e-13 -7.220509e-13 -7.220509e-13
0003f0 40 3d 4b ab 40 3d 4b ab d4 a2 07 ab 98 24 f2 aa
       -7.220509e-13 -7.220509e-13 -4.8187604e-13 -4.3013228e-13

exp_avg_sq f4 [20, 784]
000000 66 3e 4e 33 66 3e 4e 33 66 3e 4e 33 66 3e 4e 33
       4.8019864e-08 4.8019864e-08 4.8019864e-08 4.8019864e-08
000010 66 3e 4e 33 66 3e 4e 33 66 3e 4e 33 66 3e 4e 33
       4.8019864e-08 4.8019864e-08 4.8019864e-08 4.8019864e-08
000020 66 3e 4e 33 66 3e 4e 33 66 3e 4e 33 66 3e 4e 33
       4.8019864e-08 4.8019864e-08 4.8019864e-08 4.8019864e-08
000030 66 3e 4e 33 66 3e 4e 33 66 3e 4e 33 66 3e 4e 33
       4.8019864e-08 4.8019864e-08 4.8019864e-08 4.8019864e-08
000040 66 3e 4e 33 66 3e 4e 33 66 3e 4e 33 66 3e 4e 33
       4.8019864e-08 4.8019864e-08 4.8019864e-08 4.8019864e-08
000050 66 3e 4e 33 66 3e 4e 33 66 3e 4e 33 66 3e 4e 33
       4.8019864e-08 4.8019864e-08 4.8019864e-08 4.8019864e-08
000060 66 3e 4e 33 66 3e 4e 33 66 3e 4e 33 66 3e 4e 33
       4.8019864e-08 4.8019864e-08 4.8019864e-08 4.8019864e-08
000070 66 3e 4e 33 66 3e 4e 33 66 3e 4e 33 66 3e 4e 33
       4.8019864e-08 4.8019864e-08 4.8019864e-08 4.8019864e-08
000080 66 3e 4e 33 66 3e 4e 33 66 3e 4e 33 66 3e 4e 33
       4.8019864e-08 4.8019864e-08 4.8019864e-08 4.8019864e-08
000090 66 3e 4e 33 66 3e 4e 33 66 3e 4e 33 66 3e 4e 33
       4.8019864e-08 4.8019864e-08 4.8019864e-08 4.8019864e-08
0000a0 66 3e 4e 33 66 3e 4e 33 66 3e 4e 33 66 3e 4e 33
       4.8019864e-08 4.8019864e-08 4.8019864e-08 4.8019864e-08
0000b0 66 3e 4e 33 66 3e 4e 33 66 3e 4e 33 66 3e 4e 33
       4.8019864e-08 4.8019864e-08 4.8019864e-08 4.8019864e-08
0000c0 66 3e 4e 33 66 3e 4e 33 66 3e 4e 33 66 3e 4e 33
       4.8019864e-08 4.8019864e-08 4.8019864e-08 4.8019864e-08
0000d0 66 3e 4e 33 66 3e 4e 33 66 3e 4e 33 66 3e 4e 33
       4.8019864e-08 4.8019864e-08 4.8019864e-08 4.8019864e-08
0000e0 66 3e 4e 33 66 3e 4e 33 66 3e 4e 33 66 3e 4e 33
       4.8019864e-08 4.8019864e-08 4.8019864e-08 4.8019864e-08
0000f0 66 3e 4e 33 66 3e 4e 33 66 3e 4e 33 66 3e 4e 33
       4.8019864e-08 4.8019864e-08 4.8019864e-08 4.8019864e-08
000100 66 3e 4e 33 66 3e 4e 33 66 3e 4e 33 66 3e 4e 33
       4.8019864e-08 4.8019864e-08 4.8019864e-08 4.8019864e-08
000110 66 3e 4e 33 66 3e 4e 33 66 3e 4e 33 66 3e 4e 33
       4.8019864e-08 4.8019864e-08 4.8019864e-08 4.8019864e-08
000120 66 3e 4e 33 66 3e 4e 33 3d 98 30 33 c4 a1 bf 32
       4.8019864e-08 4.8019864e-08 4.1116653e-08 2.2308889e-08
000130 24 21 b4 32 d6 a7 12 33 66 3e 4e 33 66 3e 4e 33
       2.0969829e-08 3.414592e-08 4.8019864e-08 4.8019864e-08
000140 66 3e 4e 33 66 3e 4e 33 66 3e 4e 33 66 3e 4e 33
       4.8019864e-08 4.8019864e-08 4.8019864e-08 4.8019864e-08
000150 66 3e 4e 33 66 3e 4e 33 66 3e 4e 33 66 3e 4e 33
       4.8019864e-08 4.8019864e-08 4.8019864e-08 4.8019864e-08
000160 66 3e 4e 33 66 3e 4e 33 66 3e 4e 33 66 3e 4e 33
       4.8019864e-08 4.8019864e-08 4.8019864e-08 4.8019864e-08
000170 66 3e 4e 33 66 3e 4e 33 5e a9 51 33 b7 80 5c 33
       4.8019864e-08 4.8019864e-08 4.8815643e-08 5.1339807e-08
000180 3c 09 5e 33 6c 76 e6 32 f5 fc 89 32 71 b7 6a 32
       5.16968e-08 2.6829376e-08 1.606393e-08 1.3662302e-08
000190 0d 24 4e 32 1c 99 4e 32 1b 71 9e 32 9b ab bb 32
       1.1998975e-08 1.2025591e-08 1.8445055e-08 2.1847702e-08
0001a0 68 8e ae 32 5f 90 38 33 66 3e 4e 33 66 3e 4e 33
       2.0321025e-08 4.2972143e-08 4.8019864e-08 4.8019864e-08
0001b0 66 3e 4e 33 66 3e 4e 33 66 3e 4e 33 66 3e 4e 33
       4.8019864e-08 4.8019864e-08 4.8019864e-08 4.8019864e-08
0001c0 66 3e 4e 33 66 3e 4e 33 66 3e 4e 33 66 3e 4e 33
       4.8019864e-08 4.8019864e-08 4.8019864e-08 4.8019864e-08
0001d0 66 3e 4e 33 1c ce 55 33 08 25 61 33 73 b1 5e 33
       4.8019864e-08 4.9780382e-08 5.2420575e-08 5.1849792e-08
0001e0 3b 07 4c 33 d8 3d 4e 33 4e 25 54 33 7e 39 4b 33
       4.7504027e-08 4.801936e-08 4.9394025e-08 4.731691e-08
0001f0 a2 b0 d6 32 9b f9 a5 32 96 74 1d 33 55 3b 84 32
       2.4993202e-08 1.9322036e-08 3.6660445e-08 1.5393804e-08
000200 0c 17 86 32 e2 83 dd 32 89 52 c9 32 94 49 1b 33
       1.5610134e-08 2.578776e-08 2.3437012e-08 3.615567e-08
000210 3f 19 2d 33 6e 56 35 33 7c 6c 4c 33 66 3e 4e 33
       4.0302663e-08 4.2220954e-08 4.7596117e-08 4.8019864e-08
000220 66 3e 4e 33 66 3e 4e 33 66 3e 4e 33 66 3e 4e 33
       4.8019864e-08 4.8019864e-08 4.8019864e-08 4.8019864e-08
000230 66 3e 4e 33 66 3e 4e 33 66 3e 4e 33 66 3e 4e 33
       4.8019864e-08 4.8019864e-08 4.8019864e-08 4.8019864e-08
000240 1c ce 55 33 28 77 80 33 13 f3 99 33 87 70 84 33
       4.9780382e-08 5.982139e-08 7.1688326e-08 6.1671976e-08
000250 6c d3 72 33 9e cc 60 33 be 5d 79 33 fa 36 6e 33
       5.6537303e-08 5.2340162e-08 5.806009e-08 5.5463694e-08
000260 96 1b 9c 33 cc 02 34 34 a2 0f 42 34 39 1d 1e 34
       7.269334e-08 1.6764824e-07 1.8073345e-07 1.4725528e-07
000270 02 c5 25 34 82 4e cf 33 43 32 d9 33 c2 d9 1f 33
       1.5438494e-07 9.653469e-08 1.01139925e-07 3.7218122e-08
000280 65 36 30 33 3f 52 0c 33 e5 33 21 33 a3 a7 33 33
       4.1027665e-08 3.2671092e-08 3.753293e-08 4.182915e-08
000290 bf 7c 40 33 88 6b 4c 33 66 3e 4e 33 66 3e 4e 33
       4.481694e-08 4.759525e-08 4.8019864e-08 4.8019864e-08
0002a0 66 3e 4e 33 66 3e 4e 33 66 3e 4e 33 44 9d 59 33
       4.8019864e-08 4.8019864e-08 4.8019864e-08 5.0667282e-08
0002b0 1e 79 6b 33 98 ef 8d 33 67 81 a5 33 be b8 6c 33
       5.4825357e-08 6.609406e-08 7.7069494e-08 5.5116054e-08
0002c0 17 58 47 33 d4 6a b8 33 1e a4 05 34 48 b5 e7 33
       4.6413415e-08 8.5875996e-08 1.2446296e-07 1.07897506e-07
0002d0 35 f0 ce 33 07 e3 cc 33 64 49 0e 34 ec b0 77 34
       9.636316e-08 9.540786e-08 1.325148e-07 2.3068031e-07
0002e0 28 28 81 34 29 04 4d 34 64 9f f9 33 fe fb 9a 33
       2.405734e-07 1.9093626e-07 1.1623959e-07 7.217021e-08
0002f0 92 52 eb 32 a9 45 0e 33 42 0c 0d 33 9b 69 39 33
       2.739515e-08 3.3125307e-08 3.284027e-08 4.3169717e-08
000300 5b 34 2e 33 3e 6e 4e 33 66 3e 4e 33 66 3e 4e 33
       4.056015e-08 4.8063377e-08 4.8019864e-08 4.8019864e-08
000310 66 3e 4e 33 66 3e 4e 33 3a 6d 48 33 83 67 5e 33
       4.8019864e-08 4.8019864e-08 4.666547e-08 5.1782546e-08
000320 a7 29 05 33 7d 97 02 33 fa 3e d2 32 16 a0 0e 32
       3.1004358e-08 3.040576e-08 2.4475856e-08 8.301887e-09
000330 9e 7c c5 32 a8 ba 1a 33 58 92 11 32 d5 33 71 32
       2.2990488e-08 3.6025682e-08 8.4733855e-09 1.40398315e-08
000340 b2 0c 33 33 cf 13 53 32 78 29 28 33 df f9 aa 32
       4.168823e-08 1.228632e-08 3.9153264e-08 1.9904233e-08
000350 2a 1f 3b 33 73 03 82 33 00 57 0c 34 af 2e 03 34
       4.3567674e-08 6.054224e-08 1.3070166e-07 1.2217309e-07
000360 1e da ba 32 fa 77 8d 32 0e 3b 02 33 b0 4f 2a 33
       2.1752438e-08 1.646912e-08 3.0321694e-08 3.9653685e-08
000370 31 6a 34 33 36 71 50 33 66 3e 4e 33 66 3e 4e 33
       4.2006096e-08 4.853174e-08 4.8019864e-08 4.8019864e-08
000380 66 3e 4e 33 66 3e 4e 33 cf 01 16 33 96 63 14 33
       4.8019864e-08 4.8019864e-08 3.492624e-08 3.4549508e-08
000390 79 30 2b 32 22 fc 13 32 68 7c 3c 32 07 39 41 32
       9.964531e-09 8.6138545e-09 1.0971327e-08 1.1247045e-08
0003a0 d4 fc 14 33 32 50 02 32 7a fa 8d 33 c9 b6 53 34
       3.468888e-08 7.58523e-09 6.6113856e-08 1.9717403e-07
0003b0 2f d9 28 34 4e c0 18 34 b1 e0 5c 34 43 60 87 31
       1.572523e-07 1.4226063e-07 2.0570839e-07 3.939961e-09
0003c0 8c 77 f9 31 75 12 a7 32 96 19 f9 33 ad 57 a9 33
       7.2604447e-09 1.9449752e-08 1.159962e-07 7.885624e-08
0003d0 9a 1a a2 32 db ca a6 32 29 93 d1 32 5a cf 1e 33
       1.887138e-08 1.9417191e-08 2.4397723e-08 3.6975827e-08
0003e0 ef 5f 2a 33 21 03 38 33 66 3e 4e 33 66 3e 4e 33
       3.966846e-08 4.2843684e-08 4.8019864e-08 4.8019864e-08
0003f0 66 3e 4e 33 66 3e 4e 33 9d 35 11 33 dd 62 05 33
       4.8019864e-08 4.8019864e-08 3.3809204e-08 3.105639e-08

exp_avg f4 [20]
000000 7b 50 4b 2b 00 00 00 00 f4 c8 e4 b8 2d f4 16 39
       7.2231777e-13 0.0 -0.00010909318 0.00014396077
000010 4b de 5d 2b c9 97 c1 2a 38 9a 8b 38 16 94 ee 29
       7.8823466e-13 3.438901e-13 6.656762e-05 1.0595012e-13
000020 e5 01 66 b8 90 d5 39 b7 fd 5f a2 29 f2 93 87 2a
       -5.4838038e-05 -1.1076583e-05 7.2108965e-14 2.4083475e-13
000030 a4 8c 83 2b 3f 60 d5 2b 13 e6 65 b8 25 bb aa b9
       9.347145e-13 1.5161274e-12 -5.4812128e-05 -0.0003256436
000040 67 60 e0 34 2f f9 17 b9 d2 12 94 b8 7b 5c 64 38
       4.1793393e-07 -0.0001449331 -7.0606955e-05 5.4445565e-05

exp_avg_sq f4 [20]
000000 e2 5b 4e 33 00 00 00 00 1f 5d 3c 37 62 58 0a 37
       4.804668e-08 0.0 1.1227355e-05 8.246019e-06
000010 a6 44 4c 33 bc 78 87 32 2f 1a db 36 61 53 a4 30
       4.7559887e-08 1.5770972e-08 6.529757e-06 1.1956268e-09
000020 ef bf 27 37 a6 b6 87 37 2e 9b 3e 30 a5 e2 04 32
       9.998664e-06 1.6178306e-05 6.934212e-10 7.734944e-09
000030 d6 4b 6b 33 75 a1 24 34 d9 ad bf 36 8e 63 22 37
       5.4784174e-08 1.5332428e-07 5.712482e-06 9.679132e-06
000040 f8 29 1d 37 33 95 2d 37 da 36 6c 37 74 ff 16 37
       9.367701e-06 1.0346342e-05 1.4079467e-05 9.000174e-06

exp_avg f4 [100, 20]
000000 36 7c 0f 2b 00 00 00 00 14 d3 28 bb 93 5d e6 3a
       5.0976183e-13 0.0 -0.0025760578 0.0017575495
000010 96 36 15 a8 b4 3e c0 27 ce dd d2 39 c6 99 03 a9
       -8.282998e-15 5.335869e-15 0.0004021958 -2.922122e-14
000020 b6 d7 c8 ba e8 12 c7 ba 8a 5d e7 26 b7 c1 98 a8
       -0.0015323076 -0.001518813 1.6054199e-15 -1.69594e-14
000030 7d c7 ce 28 dd bd 2d a9 9e b4 bf ba b4 3b 09 bb
       2.2957109e-14 -3.8578397e-14 -0.0014625972 -0.0020940127
000040 45 ee e8 39 ba b8 4d bb 06 de 9b 3a bc 73 85 ba
       0.00044428013 -0.0031390623 0.001189173 -0.0010181586
000050 64 2d a1 2a 00 00 00 00 6f 60 cf ba 40 b4 3a ba
       2.863084e-13 0.0 -0.0015821586 -0.0007122196
000060 12 91 2e 2a 8c da a1 a8 18 fa 11 b9 e5 df 5e a9
       1.5504636e-13 -1.796937e-14 -0.00013921445 -4.94881e-14
000070 85 1d ed ba 50 53 63 ba 00 00 00 00 7e 2d ee 28
       -0.0018090463 -0.00086717773 0.0 2.6443037e-14
000080 a0 53 1f 28 92 09 51 28 dd 44 5b ba 17 9d 28 3b
       8.844406e-15 1.1603906e-14 -0.00083644484 0.0025728398
000090 fb 5e 61 b9 10 ea 90 3a d6 a4 e4 3a e3 c6 0a ba
       -0.00021493055 0.0011056084 0.0017444144 -0.00052939187
0000a0 55 7f 33 a8 00 00 00 00 60 a9 a2 a8 63 61 ba 28
       -9.964107e-15 0.0 -1.8059068e-14 2.0692383e-14
0000b0 6a 8d 33 28 00 00 00 00 00 00 00 00 00 00 00 00
       9.96716e-15 0.0 0.0 0.0
0000c0 00 00 00 00 62 bf c4 28 00 00 00 00 b1 f3 09 27
       0.0 2.184337e-14 0.0 1.9144675e-15
0000d0 4d 21 29 26 bc a2 c1 28 00 00 00 00 ca 52 83 a7
       5.8678784e-16 2.149788e-14 0.0 -3.6449564e-15
0000e0 9a ff aa 27 59 83 7a 28 43 a5 b5 27 02 89 bb 28
       4.7461602e-15 1.3906269e-14 5.041677e-15 2.0820588e-14
0000f0 80 5d a2 a9 00 00 00 00 69 29 e0 ba f3 b1 68 3a
       -7.210465e-14 0.0 -0.0017102185 0.0008876614
000100 3b ef ed a9 b2 d8 ab a7 54 a2 66 b9 f3 64 88 a8
       -1.0566414e-13 -4.7696976e-15 -0.00021994981 -1.5142813e-14
000110 25 3f a6 ba 17 68 6d 3a 00 00 00 00 00 00 00 00
       -0.0012683613 0.0009056343 0.0 0.0
000120 36 d8 5c a8 f9 36 45 a8 df 47 07 bb ae f9 8b bb
       -1.22593365e-14 -1.0947617e-14 -0.0020642204 -0.0042717075
000130 29 98 69 3a 7d 28 d9 ba 63 36 8a b9 09 41 1e 3a
       0.0008910918 -0.0016567853 -0.00026361932 0.00060369127
000140 1f ee f6 29 00 00 00 00 d3 52 31 ba 97 b0 79 ba
       1.0965902e-13 0.0 -0.0006764356 -0.000952491
000150 32 e3 94 28 1e 2f a0 29 1b cd 22 3a aa 0f 8a a8
       1.6529831e-14 7.113601e-14 0.00062103727 -1.5327871e-14
000160 09 e4 88 3a 29 a7 5e ba d7 4f ab a7 2a 02 35 a9
       0.0010443936 -0.0008493537 -4.7548597e-15 -4.019195e-14
000170 ec 6d d2 29 f2 9f 42 2a a3 1e d7 b6 f7 34 0e 3b
       9.344942e-14 1.7286154e-13 -6.411066e-06 0.002169905
000180 a1 e8 22 ba 16 6d af 3a b1 28 d3 ba 6d 00 2a ba
       -0.0006214474 0.001338395 -0.001611015 -0.0006485049
000190 7e 3e 00 2b 00 00 00 00 d0 ef 7b bb 63 87 09 3b
       4.556146e-13 0.0 -0.00384425 0.0020985238
0001a0 6d ea cf aa b5 1d 5a aa 79 82 b2 38 a5 5d 7a a9
       -3.6933252e-13 -1.9372596e-13 8.512004e-05 -5.5592375e-14
0001b0 7a 70 54 ba cb 01 20 39 80 2d 59 27 fd ac 2f a9
       -0.00081039185 0.00015259457 3.0139465e-15 -3.900785e-14
0001c0 70 c4 b9 29 30 f0 8e aa d2 46 91 bb 6f 39 56 bb
       8.249727e-14 -2.539093e-13 -0.0044334913 -0.0032688042
0001d0 c0 03 de 3a 12 14 75 ba 6c 19 4e 3a a5 a1 15 39
       0.0016938373 -0.0009348999 0.00078620645 0.00014269965
0001e0 1a 1e 05 2a 00 00 00 00 de ae 4f aa f1 ef 60 a9
       1.1823217e-13 0.0 -1.8445963e-13 -4.9946107e-14
0001f0 60 22 a6 29 fc c6 31 29 52 25 87 aa 48 83 56 a8
       7.377844e-14 3.9474487e-14 -2.4006714e-13 -1.19078534e-14
000200 e4 4d 68 29 e3 b5 8c a8 00 00 00 00 60 66 8e 28
       5.1581908e-14 -1.5622003e-14 0.0 1.5809565e-14
000210 9e 1a b2 29 ad ee 84 a9 91 0a 7d 28 84 53 72 a9
       7.909405e-14 -5.903381e-14 1.40466125e-14 -5.3807233e-14
000220 72 e7 af 27 03 7b 82 a9 fd 96 57 a9 85 c5 17 aa
       4.882319e-15 -5.794499e-14 -4.787055e-14 -1.3480022e-13
000230 d5 6b d8 29 00 00 00 00 5b 5d 8c 39 13 6f a8 ba
       9.611033e-14 0.0 0.00026772436 -0.0012850486
000240 25 78 63 2a 10 c1 0d 29 05 34 aa ba 08 22 d4 a8
       2.0203334e-13 3.1475744e-14 -0.0012985474 -2.3551487e-14
000250 f7 8d 4f ba 35 4c 90 b8 e8 6d 30 27 9c 05 88 29
       -0.0007917578 -6.88065e-05 2.4484487e-15 6.040586e-14
000260 e0 c7 dd a9 31 33 a8 29 c7 7c 4b ba d0 e4 87 bb
       -9.849044e-14 7.469579e-14 -0.0007762429 -0.0041471496
000270 8c 5b 63 3a f2 51 82 39 64 8e 40 39 61 cc 7d 3a
       0.00086730043 0.00024856586 0.00018363592 0.0009681639
000280 5f c6 02 a9 00 00 00 00 0c f6 1f ba 1a 54 51 b9
       -2.9037858e-14 0.0 -0.00061020325 -0.00019963123
000290 67 b6 d8 29 59 99 9a a9 7f 35 73 3a d6 e8 f9 29
       9.623969e-14 -6.8655754e-14 0.0009277686 1.1098212e-13
0002a0 74 52 4f ba 24 4d 77 ba 9b 37 00 27 9f 48 03 29
       -0.000790871 -0.0009433797 1.7793712e-15 2.9150832e-14
0002b0 a3 4f 21 29 07 41 f8 2a 85 4d 89 38 64 76 1e 3b
       3.5818255e-14 4.4098771e-13 6.547108e-05 0.0024179453
0002c0 f8 0d ae ba f0 08 ab ba 1d 2d 31 ba cc 9e ac ba
       -0.001327931 -0.0013048928 -0.00067587366 -0.0013169884
0002d0 f4 1a dc 2a 00 00 00 00 13 bf cc 3a 4b 63 ca b9
       3.9098553e-13 0.0 0.0015620909 -0.0003860242
0002e0 7d f9 ca aa 06 e3 28 a9 7d de 68 39 57 b9 3c 29
       -3.6055525e-13 -3.7500405e-14 0.00022208127 4.1905142e-14
0002f0 b5 2d 83 ba 1a dc da ba 00 00 00 00 f4 3f 2f a9
       -0.0010008129 -0.0016697675 0.0 -3.8913276e-14
000300 09 a3 14 2a 4e 55 58 2a cd 33 53 ba 26 e8 10 3b
       1.3201605e-13 1.921425e-13 -0.000805673 0.0022111028
000310 21 e3 9e ba dd 74 0f bb 5f 6c 01 3b 6d df cc b8
       -0.0012122133 -0.0021889724 0.0019748432 -9.769094e-05
000320 f3 85 5e aa 00 00 00 00 61 60 1b 3a 4d 8f 65 b9
       -1.9764034e-13 0.0 0.00059271423 -0.00021892526
000330 7d 9d 2e 2a ef 3c 7e a9 4e 36 2e b8 86 ae be 28
       1.5508944e-13 -5.645218e-14 -4.1535408e-05 2.1169925e-14
000340 26 58 1b ba e7 e8 4b 3a 55 f7 55 26 6f ec 51 29
       -0.0005925916 0.00077785406 7.423442e-16 4.6612396e-14
000350 77 34 41 a9 d6 f2 c9 27 24 b2 97 b9 02 e5 fb ba
       -4.2900115e-14 5.605199e-15 -0.0002893369 -0.001921803
000360 28 0d aa 39 17 cc 6a ba 9e aa a9 37 d3 46 81 38
       0.0003243473 -0.00089568034 2.022582e-05 6.1643914e-05
000370 39 10 db a8 00 00 00 00 af fd a0 3a b5 89 7b ba
       -2.432092e-14 0.0 0.0012282635 -0.000959541
000380 be 91 e3 aa f8 fc 16 2a 15 cd bd b9 f6 8a c8 a9
       -4.042443e-13 1.3410442e-13 -0.00036201687 -8.90589e-14
000390 ba 6e e9 3a 5b 42 5d ba 42 65 c9 27 5c fe b4 29
       0.0017809488 -0.00084403687 5.589849e-15 8.03773e-14
0003a0 b2 e4 13 29 34 5a fb 29 c6 c0 50 39 0e ad fc b9
       3.283892e-14 1.1162287e-13 0.0001990824 -0.0004819412
0003b0 b1 a2 85 ba 1b e5 45 ba cb 99 08 ba e9 a4 fe b9
       -0.001019558 -0.0007549093 -0.0005210905 -0.00048569523
0003c0 ac dc 8d aa 00 00 00 00 38 b1 a9 39 a7 0b 3d 39
       -2.5199753e-13 0.0 0.0003236623 0.00018028785
0003d0 22 d2 e6 aa 2c 0d ce 29 99 31 ad ba 6b da 4d 28
       -4.1002016e-13 9.150523e-14 -0.0013213634 1.1427148e-14
0003e0 0b 3a d5 3a a0 d8 44 ba 00 00 00 00 29 a1 1e 29
       0.0016267909 -0.0007509086 0.0 3.5222832e-14
0003f0 b6 8c 00 aa 92 43 30 aa b5 14 3f bb 42 e2 a8 bb
       -1.1417503e-13 -1.5655383e-13 -0.002915663 -0.005153925
